actor_net.pth (torch_old, 613233 bytes, 14 tensors)

fc1.weight f4 [512, 33]
00000000: 0696 97be 89c9 1f3e 0177 dbbd a939 4cbd
00000010: 19ce aabd fb11 89be ed3f dd3d 540e 1e3e
00000020: d7c7 f8bd fee9 1cbe 1e73 98be 7405 0f3e
00000030: 1941 13bd 9cb4 a53e f872 c63e 232d 973e
00000040: 6ff8 e8bb 6d7a b13d e957 463e 49d3 cebd
00000050: 1197 953e 4e66 95bc 530d 383c 3aa8 023c
00000060: e78c 3f3e 6177 b03d 815a d93d a440 113c
00000070: dc64 c2be 7634 843c a82c 36bc 0013 ff3a
00000080: b363 803f 3c93 5a3f 15e8 3cbe 2dc1 b0be
00000090: e19b 09bd d6b4 e23e beed 5ebe b625 cd3d
000000a0: e416 a03e db34 e1bd b39f f63d 9c3e 533e
000000b0: 2b11 9c3e 850c 4cbc ee66 3d3e d8a7 c93d
000000c0: 4dad 313e 9b56 1f3d ccdd 0f3e f95c 0ebf
000000d0: 532a 213d 39d5 6c3c 96ee 913e a829 9f3d
000000e0: fb7d 833e c028 df3c 83d9 26bd 690c 71bd
000000f0: 4520 a4bc 6272 8ebe 5fd9 0f3d 6d74 45bc
00000100: 817b ebbc fabb c43e 7292 cebd a717 c7bc
00000110: 2447 2cbd 2708 8e3d 9d4c 72bd e035 923c
00000120: 3565 19bd 9343 b53d 3f83 ea3c bdae 8abd
00000130: 5fdf 10be 8d56 2e3d 2dc7 01bd d8f7 debd
00000140: ae3a 23be 9a4c c83d aba4 a63d da37 83bc
00000150: e368 d9bd ef86 533c 4d81 b93d 8196 153e
00000160: bf43 c43d 846f 69bd c452 403d 5c44 80be
00000170: 40b2 6a3b 6eea 0c3d 1720 ea3d bfff 053d
00000180: ce6a ffbc ec6b 8f3c 215d 1fbb 364f bfbe
00000190: 37a1 44be 8585 f1be 6515 67bd fef1 9bbe
000001a0: df67 2c3c 6322 acbd ea86 82bc 4be1 153e
000001b0: 9efd e13d 1c98 4abd 40a2 193e 8a68 9f3d
000001c0: acae 973d 9488 823e 57d0 183e 68f0 823c
000001d0: c25d 263c 3107 dd3d ecd7 aebd 3266 e7bd
000001e0: f764 83bd 8fe9 973b 60da d0bc 9bce f03c
000001f0: 600c 113e 6038 b0be af60 37bc 0c88 a9be
00000200: e8d3 523c 91ad 01bd ded7 e83c 24ec b0bf
00000210: 9bb0 583e 4e13 6e3f 33f8 b5bd 5b9e b2bd
00000220: fb2b 9b3e d3a6 14bd 725c 7cbc 640e a0bd
00000230: 29c1 96bd 2876 463e 6d65 39be 9639 003e
00000240: 5d33 c13c 900e 033e 9ae5 22bf 4d8a 77bd
00000250: b4ac 19be 4044 103e 672d b03d db75 df3d
00000260: 6b12 9a3d 913f 4dbc b8a2 6dbd 4403 53be
00000270: fcb4 48be ef9b f53c b774 b73d bd02 77bc
00000280: 164b 3a3e 7e23 8c3c 5f31 16bd 8c25 17bd
00000290: 57e2 5d3f c021 743c f3f3 983e 93b6 d8bd
000002a0: dbc7 debe 00cd a63b cc39 8f3d ebb6 993d
000002b0: 838d 4dbe a524 82be 42d9 ba3e c3b7 6a3e
000002c0: ddb0 08be 015d ac3d d5c5 aa3e 6e4a 91be
000002d0: 213f 56be d4e1 53bd fc4a 8f3e 60ac c53c
000002e0: ddc6 aabc 7f7e a0bc 6329 7e3e 8883 70bd
000002f0: 512d bd3e 607f 62be dab0 263e 4f6c ddbe
00000300: ef04 dcbb 2002 613d c645 ea3c 3f04 a13b
00000310: 2e3a a33c fdf7 c03c 4259 9d3e 560c 2ebe
00000320: 9998 093e d689 ba3d 32b4 8abd 5dbb 033e
00000330: fcaa 1abe 1a1b a23d e832 163d 60ee 1fbc
00000340: 1672 c23b 794d aa3c 98cd c33c 30e2 b4be
00000350: f233 f23d 2ac1 18bd ba35 81bd dce1 5d3d
00000360: a57c b7bc 748b b33c fd47 8d3c 8144 0d3e
00000370: 9cb7 e03c 0fe2 80be 7492 51bd ab0b 263d
00000380: 1082 643e 6d8d 0e3d ee02 debe aeda 77bc
00000390: 85f0 ed3c 98f9 9f3b f995 c1bf 5bff bb39
000003a0: f4b5 ba3d 19dd 973e ab86 10bc 02a2 14be
000003b0: 8544 393e 9155 683d 8be1 2e3d 0310 3cbe
000003c0: 41d2 25be dfff 1e3c 0b30 fdbc a6a8 12bd
000003d0: a45d 64be c903 27bd 2da7 0bbe b9fa dabc
000003e0: 1263 c63d 88e2 8bbd 33e4 ca3c 6067 40bd
000003f0: 9c53 68bd 94ff 43bb a2bf 16be 7ebb 903d
-0.29606646 0.15604223 -0.107160576 -0.049859677 -0.08340091 -0.2677153 0.108032085 0.15435153
-0.121474914 -0.15323636 -0.29775327 0.13966924 -0.035950754 0.32364357 0.3875959 0.29526624
-0.0071096937 0.08665929 0.19369473 -0.10098893 0.29216817 -0.01823726 0.0112336455 0.007974679
0.18706094 0.0861652 0.106129654 0.008865509 -0.37967575 0.016138297 -0.011119045 0.0019460618
1.0030426 0.8538091 -0.18447907 -0.3452238 -0.033595923 0.44278592 -0.21770379 0.100169584
0.31267464 -0.109964095 0.12042179 0.20629352 0.30481848 -0.012454157 0.18496296 0.09846467
0.17351265 0.038900953 0.14049453 -0.55610615 0.039347004 0.014455133 0.2850234 0.07771617
0.25682053 0.02724111 -0.04073478 -0.058849726 -0.020034919 -0.27821642 0.03511941 -0.012051684
-0.028745415 0.38424665 -0.10086526 -0.02430327 -0.042060032 0.06935149 -0.059155095 0.017847955
-0.037450034 0.088507794 0.028627036 -0.0677161 -0.1414771 0.04256301 -0.03168409 -0.10887116
-0.15940353 0.097802356 0.08136877 -0.016017843 -0.10615709 0.012910589 0.09057865 0.14608194
0.09583234 -0.056991115 0.04695393 -0.25052154 0.0035811812 0.034403257 0.11431902 0.0327146
-0.031178858 0.017507516 -0.0024316984 -0.3736512 -0.19202124 -0.4717218 -0.056416888 -0.30458063
0.010522812 -0.08404996 -0.015933473 0.14636724 0.11034702 -0.04946147 0.150033 0.07783611
0.07406363 0.25494826 0.14923225 0.015983775 0.01015419 0.10792387 -0.085372776 -0.11298789
-0.06415742 0.0046359967 -0.025494754 0.029395392 0.14164877 -0.3441801 -0.011192485 -0.33111608
0.012867905 -0.031659666 0.028423246 -1.3822064 0.2116112 0.92998207 -0.08885231 -0.0872161
0.30306992 -0.03629191 -0.0154029 -0.07815245 -0.07361061 0.1938101 -0.18105097 0.12521967
0.023584062 0.12798524 -0.63631594 -0.06043463 -0.15007287 0.14088535 0.0860241 0.10911151
0.07523044 -0.012527362 -0.05801651 -0.20606714 -0.1960029 0.029981581 0.089578085 -0.015076336
0.18192706 0.017106768 -0.036668178 -0.036901042 0.8667349 0.014900625 0.29873618 -0.10581698
-0.43511853 0.005090356 0.06993446 0.07505592 -0.20073514 -0.25418583 0.3649388 0.22921662
-0.13348718 0.084161766 0.3335406 -0.28377098 -0.2092252 -0.05172904 0.27986896 0.024130046
-0.020846779 -0.019591568 0.24820475 -0.058719188 0.36948636 -0.22118902 0.16278401 -0.43246695
-0.0067144553 0.054933667 0.028597724 0.0049138363 0.019925203 0.02355575 0.3073216 -0.16996893
0.13437118 0.09108321 -0.06772651 0.12864442 -0.15104288 0.079153255 0.03666964 -0.009761423
0.0059340103 0.020788895 0.023901746 -0.35328817 0.11826314 -0.03729359 -0.06309076 0.054170474
-0.022398302 0.021917082 0.01724624 0.13795663 0.027431302 -0.2517247 -0.05116506 0.04053847
0.2231524 0.034802843 -0.4336161 -0.015127821 0.029045353 0.004882049 -1.5123893 0.00035857674
0.09116736 0.29660872 -0.00882117 -0.14514926 0.18092544 0.056722227 0.042695563 -0.18365483
-0.16193487 0.009704559 -0.030906698 -0.035805367 -0.22301346 -0.040775094 -0.13637991 -0.026730882
0.09686865 -0.06830317 0.024767017 -0.046973586 -0.05672036 -0.0029906975 -0.1472154 0.07067011

fc1.bias f4 [512]
00000000: 1fdf 17be 35a6 1d3e 5cad 03be c9b3 97bd
00000010: f4a6 e3bc 3a6d 84ba ba1c a1bc 7995 043e
00000020: 326c 053e 8c95 1ebe 2f5d 25be 2b76 2ebe
00000030: a854 143e 0158 adbc 4266 b0bd bc32 ebbd
00000040: a861 ba3c bc09 4c3d 8a86 cc3d f9cd 0f3e
00000050: 2990 1e3e c9d2 edbd 96e2 14bc 05a3 e2bd
00000060: 6bb4 80bd bba8 a43b 5cf6 c73d ea03 a0bd
00000070: 38ff c8bd a0bf 3cbd 3842 933d bf92 9d3b
00000080: 578e 053e b957 20be fe5a 813d 4d05 073e
00000090: 5384 e03d 9a22 1bbe 9cda edbd 5b4e 2b3b
000000a0: 2fda 3b3a b298 d43d 8475 113e 8a56 3cbc
000000b0: 9ea1 51bd 1864 c23d e43c e7bd 767f a2bd
000000c0: 60f9 ae3c adda efbc b483 d73d f2b2 0ebd
000000d0: b16c 983c 405e 4a3d 76de 72bc 9e02 65bd
000000e0: c0e5 df3d 7db9 c63d c8bb d9bc 3142 e4bd
000000f0: dfd6 69bd c0ae f63d bebb d03d 7c91 68bd
00000100: 5de6 c23d 1a03 a8bc 6a8c 28bc 7f9c a7bd
00000110: 316e af3b 9b81 14bd 64ff 333d 28ce 29be
00000120: 6092 29bc a562 0bbe 4faa 25be cece 30be
00000130: f249 e5bc ef68 053d 4578 913c 8c3b 273d
00000140: 2a13 99bd 8417 ecbd 8880 1abd 02cb 05be
00000150: a5b6 b1bc 02a6 153d 626f c63c 0cfa 21be
00000160: ec32 293e eb7f 193e 9db9 9fbd dcce 17be
00000170: 036c d03c 7fde 203d 9de0 3ebd eab6 a3bd
00000180: 3ffc 573c 65ca d8bd 4dc3 babd 50f7 633d
00000190: 4718 a13c bae0 8f3d 26b9 163e 01ea dfba
000001a0: 189d 733d 9568 fe3d ed0a e1bd 6469 ed3d
000001b0: 994e f43d 520d 88bd 4d47 0b3e 9577 a3bd
000001c0: 3b21 aabd 78a3 ff3d 7070 a53d ce97 4dbc
000001d0: c3c9 0cbe d034 cc3d 2a9b 2e3d 028f d4bd
000001e0: 8308 d3bb 4bca 003e 8d9e 963d 82e6 a3bd
000001f0: ffeb 0fbb 59e5 7bbd 724b eb3d 0f10 a73d
00000200: 282b d3bc 8808 a7bc c4cc 01be 222a 1ebd
00000210: c4ee ae3d 81ef 2abe 49fe b53c 3b90 293e
00000220: cc7e 993d 383e b13d eff3 40bd 7377 70bc
00000230: 1725 18be f268 acbd c6dd 323d 9f8f 733d
00000240: a532 d23d e5d0 c8bd cfb3 4c3d 1aea c4bd
00000250: e5ec 03be 5cb4 88bd a1b3 f2bd 58c2 063d
00000260: a7a5 df3c 7da0 e43d 08e0 b93d 768f 0a3d
00000270: 0090 893d bd68 5a3d 6fed 28be c7c0 a4bd
00000280: f087 11be fad8 cebd 53ba 0e3d ba0c 283e
00000290: d380 f63d 5b38 91bd 51b5 253d 1748 f53d
000002a0: d271 143d 26e5 11be aad7 ae3c 8348 913d
000002b0: a3ab e83c 70e1 223e 0abe 143e 8728 c7bd
000002c0: b486 073e e67b 1fbe c765 cabd 9f77 903d
000002d0: 0eda ae3b faf3 193e 6cfe d33d 78d6 17bd
000002e0: b97c 2a3e d7e3 ffbd fbd6 043d 4a75 633d
000002f0: c251 0b3e 3366 2e3e 03cd ad3d b2b5 9ebd
00000300: 067e 0f3e 375b f53d c07e 5ebb 88d8 ff3d
00000310: ca25 e33c 921d 78bc 8401 5c3d fb4e 063a
00000320: 74b7 48bd 3cb7 ce3c 7b1a 85ba 4aeb f4bd
00000330: b09e 02be 6c4b 6a3d 49ce 8abd a7a7 8d3b
00000340: 506e 1d3e 1680 033e 12fe c53d 0181 be3d
00000350: d385 f13d 07a3 eebd 65d1 253e 6585 03be
00000360: c5e1 e6bd 0509 92bd 162f 2e3e 819c c73d
00000370: 25bd 473d 32c0 ce3d 0926 2abe 6b04 2abe
00000380: fd20 5e3d a65b 42bd bf8d aa3d 110b fdbd
00000390: d8aa 283e 649d 1bbe 48b5 b53d 1d04 bc3d
000003a0: a02e bfbd ae9c 1d3e 01d8 b93d bfca a2bd
000003b0: 890e a1bd 877d 083e 3580 2fbd 324d 313c
000003c0: 2053 a33d 8c57 a63d 567a b2bd 7916 063e
000003d0: 125b 583d c652 653d 6fb4 a5bd fcde a03d
000003e0: 6a0e b1bc bfa9 fc3d c5cb b63d 751a 013e
000003f0: 6ec2 c0bc 8b4c e73d b120 093e 432e 1e3d
-0.14831208 0.15395434 -0.128591 -0.07407338 -0.02778957 -0.0010103353 -0.019667018 0.12947644
0.13029554 -0.15486735 -0.16148828 -0.17037265 0.14485419 -0.021160128 -0.08613254 -0.11484286
0.022751644 0.04981397 0.09986599 0.14043416 0.1548468 -0.1161247 -0.009087225 -0.1106625
-0.06284412 0.005024997 0.09763786 -0.078132465 -0.09814304 -0.046081185 0.071903646 0.0048087533
0.1304258 -0.15658464 0.063161835 0.13185616 0.10962739 -0.15149918 -0.11613962 0.0026139233
0.0007165996 0.10380687 0.14204985 -0.011495242 -0.05117952 0.094917476 -0.11290911 -0.079344675
0.021359146 -0.029279077 0.10523167 -0.034838624 0.018606516 0.04940629 -0.014823547 -0.0559107
0.10932493 0.09703348 -0.026578799 -0.111454375 -0.057089683 0.1204505 0.10192059 -0.05677937
0.095165946 -0.020509291 -0.010287384 -0.08184146 0.005353712 -0.036256414 0.04394473 -0.16582549
-0.01034984 -0.13611849 -0.16178249 -0.1726639 -0.027989361 0.032570776 0.017757544 0.040828273
-0.074743584 -0.11527923 -0.037720233 -0.13065723 -0.021693537 0.03653527 0.024223033 -0.15818042
0.16523331 0.14990203 -0.07799075 -0.14825004 0.025442129 0.03927469 -0.046600927 -0.079938725
0.013182699 -0.10585479 -0.09119282 0.055655777 0.019664897 0.07025285 0.14719066 -0.0017083288
0.05947599 0.12422291 -0.10988412 0.11592367 0.11929054 -0.06643166 0.13601418 -0.07981793
-0.083071195 0.12482351 0.080780864 -0.0125484 -0.13748841 0.09971011 0.042628445 -0.10378839
-0.0064402237 0.12577169 0.0735446 -0.0800295 -0.0021960733 -0.06149802 0.114889994 0.0815736
-0.025777414 -0.02038981 -0.12675768 -0.0386144 0.08541635 -0.16692926 0.02221598 0.16558926
0.07494888 0.086544454 -0.047107633 -0.014676916 -0.14857899 -0.08418454 0.04366853 0.05946314
0.10263566 -0.098054685 0.049976166 -0.09614964 -0.12883337 -0.06675026 -0.11850668 0.032900184
0.027300669 0.11163423 0.09075934 0.03382822 0.06716919 0.053322542 -0.16496824 -0.08044582
-0.14212012 -0.10099979 0.03484566 0.16411105 0.1203629 -0.07090827 0.04045612 0.11976641
0.03624136 -0.1424757 0.021343071 0.07093909 0.028402155 0.1590631 0.14525619 -0.09724527
0.13234979 -0.15574607 -0.09882694 0.07054066 0.0053360527 0.15034476 0.103512615 -0.037069768
0.1664914 -0.12494629 0.032431584 0.055531777 0.13605407 0.17031173 0.084863685 -0.077494994
0.14012918 0.119802885 -0.003395006 0.12492472 0.02772798 -0.015143769 0.053712383 0.00051234633
-0.04900308 0.025233857 -0.0010154987 -0.1195894 -0.12755847 0.057200834 -0.06777627 0.004322964
0.15374112 0.1284183 0.09667601 0.09301949 0.11793103 -0.11652189 0.16193159 -0.12843855
-0.11273531 -0.071306266 0.1701015 0.097466476 0.048764367 0.10095252 -0.16616072 -0.16603248
0.05423068 -0.047450684 0.08327817 -0.123556264 0.16471422 -0.15196759 0.08872467 0.09180472
-0.09335065 0.153918 0.090744026 -0.07948827 -0.078641005 0.13329135 -0.042846877 0.010821627
0.07974839 0.08122167 -0.0871474 0.1309451 0.052821226 0.055987142 -0.080910556 0.07855031
-0.021613318 0.12337064 0.08925585 0.12607749 -0.023530211 0.11293896 0.13391377 0.038618337

bn1.weight f4 [512]
00000000: 1bbb 903e 4849 ad3e 8d9e 463c d10e 623f
00000010: 4c5f e13e 59d2 903e 18b3 493f 03a0 683f
00000020: 8430 5e3e 2971 243f 2dba f53e 5e1a a93e
00000030: df5a 8c3e 05ae f73e a74a b33e dd3b d33e
00000040: 50db de3a 7ee5 d23e 002d cb3e 2014 d23e
00000050: fc57 da3e acf6 133f 99af ae3e 92ef a33e
00000060: f04d 363f 16cb a43e 6cce a63e 1ab2 8f3e
00000070: e1ed b73e c5f5 cc3e 7ac0 183f 29b3 193f
00000080: 273d a13e 1fde 173f 808f 3b3f e06a 7e3e
00000090: 5e00 c43e f3ee 993e 8fb5 e23e 7063 c83e
000000a0: 6d33 103f 2c78 b73e 069c cc3e d973 453f
000000b0: ad64 b83e 60f1 6e3e 4dc7 163f df70 0a3f
000000c0: b5e2 b33e 00a6 b23e 9114 393e 0be2 d83e
000000d0: 5fe9 4e3e d5a1 703e ae44 c93e 1933 ef3e
000000e0: 8c5b 1b3f bc6b f53e 1731 b33e e980 f73e
000000f0: 24bf f23e 0f42 1c3e 84ef c03e e4cb 463e
00000100: 372d 713c 2a01 eb3e e477 b53e b646 b33e
00000110: e248 233f 7062 1a3f c3d0 8d3e cd7e 763e
00000120: 1510 dd3e a9a5 343b 4019 cf3e 450c 973e
00000130: 03ba 053f cbaf 613f 42d0 0c3f 0b6e 1d3f
00000140: 6897 893e 7e2e e23e 493f b23e 6ab7 533d
00000150: 2db1 b23e 6c57 203f e2c1 dc3e a34f 873e
00000160: 3602 e33e ae52 ca3e 5863 0a3f 1cd8 e03e
00000170: 6689 693e e799 f13e f7bc cd3e 1b8e c33d
00000180: fa59 bf3e b014 f93e 3a25 133f 9776 a3be
00000190: 3df7 b53e cbc8 ba3e 91a1 dc3e b69a 013f
000001a0: c27a df3e 083e 1e3f 6a39 083f fa93 b63e
000001b0: 9226 083f d302 363f f1bd 283f 59bd e93e
000001c0: 6c33 49b7 e622 833e 673a 933e b566 b53e
000001d0: 872d 153f 3a6c 0f3f 7ad5 c13e d855 033f
000001e0: 2804 bf3e 4735 383e ab5a 2a3f a0cf 153f
000001f0: 09f2 ba3e 0401 cd3e 5da3 e43e fbc5 543f
00000200: ab73 053b c83a 203f 6fe0 483f 9e21 d13e
00000210: f4c2 b83e 8c33 d83e fdfb fc3e 75ef fa3e
00000220: 3d70 c93e abd7 0f3f 7967 903e 042c 513e
00000230: d300 333f d170 813e 2415 ad3e b514 2d3f
00000240: 45d2 5e3e 10ac 703e 6476 923e b24a 923e
00000250: 5298 5c3f 6e64 0b3f 667c 183f 8f52 683f
00000260: c7f6 933e d4ae dc3e 3149 113f a0fe e63e
00000270: cd1e c13a a4ed 883e 7238 f73e 2579 d23e
00000280: 5d6e b539 cd91 ca3e 62f0 be3e afc6 da3e
00000290: 2581 5a3f f609 f23e c777 a43e 985a ba3e
000002a0: 5f16 3b3f ecda a23e 9265 6d3c dff1 bf3e
000002b0: d72e 093f d0c9 db3e 5a76 093f 42c6 053f
000002c0: 80ca 01ba 60fe 073f 039c 053f c56f 8b3e
000002d0: 7e01 133f a9ea fb3e 8608 1c3f 6095 143f
000002e0: 54a8 d03e 3f9b 413e 7119 bb3e 666b 103f
000002f0: 66b3 d43e eb86 ac3e e151 763e 8845 d13e
00000300: 4697 213f 5cad 9e3e fa79 853e fbd9 b73e
00000310: e9e3 343e b293 043f 78b9 ca3e 9914 e93e
00000320: 3b13 493f 1e66 0c3f 00bb 8c3e d1ef d73e
00000330: d669 cb3e a7d3 23b9 572b 8f3e 27b5 db3e
00000340: f723 b73e 937a fb3e dee6 923e 73c9 003f
00000350: 0625 ee3e 70d7 263f 49bb 3c3f 4bac d63e
00000360: eb5a a53e 6712 a83e a135 df3e c6fe fa3e
00000370: d287 003f adee 583e faca 0b3f 8d99 91bb
00000380: 4737 723e fa59 d23e 590f af3e dfd4 c13e
00000390: f6ee 013f 126a 073f 35a0 183f 02c3 a23e
000003a0: 15bf d63e f5dc ec3e df70 8e3e daa4 883e
000003b0: 3c5b cd3e 999f ef3e 50e5 1e3f 90bb 953f
000003c0: 358e 1f3f ae74 7fba 7975 a93e b241 003f
000003d0: 8648 c53e a3e7 c63e a82f dd3e 67ed b83e
000003e0: 6578 5f3e d0bd a63e a129 613e 4c51 963d
000003f0: 6630 173f 0850 223f 84a1 8e3e 62d4 bd3e
0.2826775 0.33844972 0.012122762 0.8830386 0.44018018 0.28285483 0.787889 0.9086916
0.21698195 0.6423517 0.47993603 0.3302793 0.2741308 0.48374954 0.35017893 0.4125661
0.0017002616 0.41190714 0.3968277 0.4103098 0.42645252 0.57798266 0.34118345 0.32018715
0.71212673 0.32186192 0.32579362 0.28065568 0.35923675 0.40031257 0.59668696 0.60039
0.31491968 0.59323305 0.7326584 0.24845457 0.3828153 0.30065116 0.44279143 0.39138365
0.5632847 0.3583387 0.39962786 0.77129894 0.3601431 0.23334265 0.5889786 0.5407848
0.351339 0.34892273 0.18074252 0.42359957 0.20206212 0.23499234 0.3931021 0.46718672
0.60686564 0.47933757 0.3499839 0.48340538 0.47411454 0.15259574 0.37682736 0.19413716
0.014720253 0.45899326 0.35443032 0.35014886 0.63783085 0.60306454 0.27698335 0.24071808
0.43176332 0.0027564561 0.40448952 0.29501548 0.52236956 0.88158864 0.55005276 0.6149604
0.26873326 0.44176096 0.34813908 0.05168859 0.349008 0.62633395 0.4311667 0.26427945
0.44337624 0.39516205 0.54057837 0.43914878 0.2280632 0.4718773 0.4018323 0.09548589
0.37373334 0.48648596 0.5747868 -0.31926414 0.3554019 0.36481318 0.43092015 0.50626695
0.43648344 0.618134 0.53212607 0.35659772 0.53183854 0.7109806 0.6591483 0.45652273
-1.1992506e-05 0.25612563 0.28755495 0.35429922 0.58272594 0.56024516 0.37858182 0.5130286
0.37307858 0.17989074 0.665446 0.58519936 0.36512783 0.40039837 0.44655886 0.83114594
0.0020363133 0.62589693 0.7846746 0.4084596 0.36086237 0.42226827 0.49411002 0.49010816
0.39343444 0.5618846 0.28203943 0.20426947 0.6992313 0.25281385 0.33805192 0.6760972
0.21759899 0.23503137 0.2860595 0.28572613 0.8616992 0.5445012 0.59564817 0.90750974
0.28899214 0.43102133 0.56752306 0.45116138 0.0014733911 0.26743805 0.48285252 0.4110805
0.00034605237 0.39564362 0.37292773 0.4272971 0.8535331 0.47273225 0.32122633 0.36397243
0.7308101 0.3180765 0.014489548 0.3748922 0.53587097 0.42927408 0.53696215 0.5225564
-0.00049511343 0.5312252 0.5219118 0.2723371 0.5742415 0.4920247 0.60950506 0.5804043
0.40753424 0.18906878 0.36542848 0.56413877 0.4154312 0.33696684 0.24054672 0.4087336
0.6312145 0.30991638 0.26069623 0.35908493 0.17665066 0.51787865 0.39594626 0.45523527
0.7854497 0.5484332 0.2748642 0.42175153 0.39729184 -0.00015623738 0.27962753 0.42911646
0.35769626 0.49116954 0.28691763 0.5030739 0.46512622 0.6517248 0.73723274 0.41928324
0.32295927 0.3282654 0.43595603 0.49022502 0.50207245 0.21184798 0.5460659 -0.0044433535
0.23653899 0.41084272 0.34191397 0.3785772 0.5075525 0.52896225 0.59619457 0.31789404
0.4194266 0.46262327 0.2782049 0.26688272 0.4010867 0.4680145 0.62068653 1.1697865
0.62326366 -0.00097448647 0.33097437 0.50100243 0.38531893 0.388486 0.4320042 0.36118624
0.2182327 0.3256669 0.21988536 0.07339725 0.59058225 0.6340337 0.27857602 0.37076098

bn1.bias f4 [512]
00000000: c633 d5be ddc4 6bbd 685c a3bd 1e15 22bf
00000010: a56c dfbe 4ae7 15bf d13a d5be 7937 00bf
00000020: 0c03 dfbe b8cc 89be c0e4 44be a705 98be
00000030: 5699 b6be 4382 13bf 903a 853e aa75 e3be
00000040: 9a98 65bc e445 05bf 5636 d0be ce10 9bbe
00000050: 8a3c 53be 825f b5be 9a74 babe d9fc aabe
00000060: 6097 ffbe 104e 41be b4d5 85be f3fd 14bf
00000070: b887 32be 751b b4be 8713 0cbf 047a d5be
00000080: 905f 98be 4656 53bf 6d24 25bf 0971 20bf
00000090: dc78 1dbf c7ee 69be 7c4e 0bbf bf69 18bf
000000a0: b83e d8be 348b 83be 88c2 14bf f78b 09bf
000000b0: a548 02bf 459c acbe c184 e9be 1434 c7be
000000c0: 0773 97be 2b29 92be 4de0 91be e966 5bbe
000000d0: c0da 84be 1398 f9be 32db c8be 8462 ecbe
000000e0: 9112 203f adf2 f8be 3b57 efbe bc69 e6be
000000f0: ab13 21bf 2053 f6be 643c 24bf 46a1 e5be
00000100: 1c69 d2bd 44c8 debe 7136 27bf 0492 12bf
00000110: eb2e 8dbf 8856 70be b4e3 a5be 73da 023e
00000120: 3ea2 b4be 39ee 26bd 44c9 27be 0470 6dbe
00000130: 151c 14bf 90c3 1cbe f3fe 89bf f35c 24bf
00000140: 8c5d 19bf 4e2d 84bf a755 d3be 5fe2 e2be
00000150: 6de1 ecbe bcd6 0bbf cdfc f9be 7349 91be
00000160: f635 5bbe d70e 16bf 7511 59bf d496 9dbe
00000170: 9162 46bf eff5 02be c344 90be 84b6 0cbf
00000180: b851 96be ed4c f5be 7741 9bbe 0cb1 c4be
00000190: 7781 eebe 2ccb a3be af79 a9be c19a 2fbf
000001a0: dabe 6bbf b5c8 21bf f5fe 6e3f 231c 9ebe
000001b0: 3000 e9be 2e99 83bf a966 b3bf c155 fabe
000001c0: 870d 88bc a8ee cbbe 2899 33bf b178 b5be
000001d0: 544b 32bf 9905 9dbf 1566 7ebe fb46 20bf
000001e0: 5417 5abe 9bab 9ebe 994d fcbe 7300 2fbf
000001f0: 35e2 49bf e3d2 86bf fef3 15bf 55f3 fbbe
00000200: 00b2 1abd db3f 80be 7564 dabe 1902 14bf
00000210: cc7c 97be 4d8b 0bbf 403a efbe 4d6f d9be
00000220: 7947 b0be 3d88 81be 5425 64bf 5ec6 cabe
00000230: 56ce 0dbe ef5d 97be ea33 b9be 4e90 07bf
00000240: 5016 dbbe fded 31bf c0b3 1dbf 3632 e2be
00000250: 36ac 26be 61a2 5dbf 56ec 47bf 5d00 d8be
00000260: 9885 ddbe f6dd 39bf 5a14 aabd 8c2b a2be
00000270: 4eba a0bd 619d 2cbf a3c4 a33e ffbe 10bf
00000280: 3b63 8cbb ae8b 5ebf 3625 26bf 57c0 b3be
00000290: 85e1 f5be 9374 2ebf 81de 84bf 018f 05bf
000002a0: a9f3 0bbf 205f 35bf 1f98 39be 4707 05bf
000002b0: 3b61 59bf ca00 25bf 6d36 67be ca6a c5be
000002c0: 3223 51bc 6c3a 5cbf 6232 c9be c828 24bf
000002d0: 5edb 28bf 0e2f 96be 4d29 a7be 468e 9dbe
000002e0: eb96 823c 04ea 95be 61d8 bebe 3f6b 12bf
000002f0: fda7 b4be 2d31 c1be d756 70be b3c5 c6be
00000300: f529 0cbf 925b 85be d7d2 2bbd f749 20bf
00000310: e806 e5be d83e 25bf 1f34 5ebf 2ad5 70be
00000320: dddc 03bf c2c5 94be 1d4b 38bf ff22 3ebe
00000330: c6a1 9dbe e3cb 1dbc 546b f8be a639 22bf
00000340: 066b dfbe 0cbb 22bf b183 29bf 0ebb 93bf
00000350: f4d8 2bbf 531f 80bf 1ac3 0cbf 58ff 17bf
00000360: 5003 19bf 452e 0dbf 64e9 1abf 7449 0bbf
00000370: 647f 15be 0be6 eabe 331d 30bf 7862 29bd
00000380: e2dc 02bf 06d0 08bf 9cdc 00bf ab9d cfbe
00000390: 983d 2fbf 367a ccbe 81aa 08bf c720 48bf
000003a0: b10e 4bbe 8771 c93d 32a7 18bf 559e 97be
000003b0: 1e12 a4be 16a4 29bf 3342 d8be b9d1 d0be
000003c0: d379 f5be 101e e8bc 48e2 52bf db79 08bf
000003d0: 7147 03bf 02f8 9fbe be76 dcbe fec8 04bf
000003e0: 6705 9abe ee3d 7dbf 3934 d2be d423 b83d
000003f0: bbd6 2cbf b804 28bf 034e 99be 5b23 c1be
-0.41641062 -0.05756079 -0.079766095 -0.6331347 -0.43637577 -0.58556044 -0.41646436 -0.50084645
-0.43557012 -0.26914 -0.19227886 -0.29691812 -0.3566386 -0.5762064 0.26021242 -0.44425708
-0.014013434 -0.5205977 -0.40666455 -0.30286258 -0.20628563 -0.3542443 -0.36417085 -0.33396032
-0.49920177 -0.18877435 -0.26139605 -0.58199996 -0.17434585 -0.35177198 -0.54717296 -0.41694653
-0.29760408 -0.8255352 -0.64508706 -0.6267248 -0.6151254 -0.22844993 -0.5441663 -0.59536356
-0.4223535 -0.2569214 -0.5810933 -0.53729194 -0.50892097 -0.33712974 -0.45609096 -0.3890692
-0.29579946 -0.28547034 -0.2849144 -0.21425976 -0.25948143 -0.48748836 -0.39229733 -0.4616891
0.6252833 -0.48622647 -0.4674624 -0.45002544 -0.62920636 -0.48110294 -0.6415465 -0.44849604
-0.10273954 -0.43512166 -0.65317446 -0.5725405 -1.1029943 -0.23470509 -0.32400286 0.12778644
-0.3528003 -0.04075453 -0.1638537 -0.23187262 -0.5785535 -0.15308976 -1.0780929 -0.6420433
-0.59908366 -1.0326326 -0.41276285 -0.44313332 -0.46265736 -0.54624534 -0.48825684 -0.2837635
-0.21407303 -0.58616394 -0.8479226 -0.30779135 -0.7749415 -0.12789129 -0.2817746 -0.54965997
-0.2935922 -0.47910252 -0.30323383 -0.38416326 -0.4658315 -0.31990945 -0.3310065 -0.6859551
-0.9208809 -0.6319688 0.93357784 -0.30880842 -0.45507956 -1.0281122 -1.4015704 -0.4889355
-0.016608013 -0.39830518 -0.7015557 -0.35443643 -0.6964619 -1.2267333 -0.24843629 -0.6260831
-0.21297961 -0.309903 -0.49277952 -0.6836006 -0.7886079 -1.0533108 -0.5857543 -0.49209085
-0.03776741 -0.25048718 -0.42654768 -0.578157 -0.295874 -0.5450943 -0.4672413 -0.42467728
-0.3442953 -0.25299254 -0.8911946 -0.39604467 -0.13848242 -0.29563853 -0.3617242 -0.52954566
-0.4279046 -0.69503766 -0.616024 -0.44178933 -0.16276631 -0.86575896 -0.78094995 -0.42187777
-0.43265986 -0.7260431 -0.08304663 -0.3167385 -0.07848035 -0.6742764 0.3198596 -0.56541437
-0.00428429 -0.86931884 -0.6490053 -0.3510768 -0.4802362 -0.6814663 -1.0380403 -0.5217133
-0.5466867 -0.70848274 -0.18124436 -0.5196423 -0.84913987 -0.6445433 -0.22579356 -0.38558036
-0.012764739 -0.86026645 -0.39296252 -0.6412473 -0.6595973 -0.29332775 -0.32648697 -0.3077261
0.015941104 -0.29280102 -0.3727446 -0.57194895 -0.35284415 -0.3773283 -0.23470627 -0.38822708
-0.5475152 -0.26046425 -0.04194912 -0.6261286 -0.44731832 -0.64549017 -0.8679828 -0.23518816
-0.51508886 -0.29057127 -0.71989614 -0.18568037 -0.30787486 -0.00963113 -0.48519385 -0.63369215
-0.4363634 -0.6356666 -0.6621657 -1.154146 -0.6712792 -1.0009559 -0.549852 -0.59374
-0.5977068 -0.55148727 -0.60512376 -0.54408956 -0.14599377 -0.45878634 -0.68794554 -0.041353673
-0.5111829 -0.5344242 -0.50336623 -0.4054998 -0.6845336 -0.3993699 -0.5338517 -0.78175014
-0.19829823 0.09836107 -0.5963012 -0.29612985 -0.32045072 -0.66266 -0.42238006 -0.40785006
-0.47944507 -0.028334647 -0.8237653 -0.53310937 -0.51280886 -0.31243902 -0.43059343 -0.5186919
-0.30082247 -0.9892262 -0.41055468 0.08991209 -0.6751515 -0.656322 -0.2994233 -0.37722287

bn1.running_mean f4 [512]
00000000: 66b8 e8bf 583c 763e 5194 e63e 954f b5be
00000010: 71c2 47bf 5070 d4be b8a7 563e 3254 dbbb
00000020: d61c 24bf 4916 11bf 6516 2f3f fede 17bf
00000030: 65eb 0d3e f3bd 17bf 8613 bebe 788e 7bbd
00000040: eb9a 30bd fd96 dcbe b533 34bf e6f9 963f
00000050: cc26 a8bf 935e a03f 38c3 a9bf 1a1b 133f
00000060: 9fba 243d 356b ea3e fbe1 8b3f e2d0 bfbf
00000070: 6283 99bf a46c 083f 22b0 503f 7ebf 39bf
00000080: 5385 883f 1611 adbe fc47 853e 0b6c cdbe
00000090: 1126 673e 0ed5 ac3f b0a4 6b3f bd6f 15bc
000000a0: 4f7c c1bd 9049 23bf 28a9 84be 0fa0 9a3e
000000b0: 7246 95bb 7e75 0a40 6a4b 55bf 8eca 323d
000000c0: 54e1 1f40 e86a 3c3f 975b 203f 5a62 8440
000000d0: 51cd 2940 fc12 c13f 01bb 0bbf a094 1fbf
000000e0: 644a 8c3f b664 203e b8c4 1c3c 2bd5 b3bd
000000f0: 599a 613c 05b8 adbf a9c1 67be 5e32 dfbf
00000100: 89bf 6e3f f549 4c3f 404d 30bf d05f bebe
00000110: cf4c d9bf 750b 833f 902a a2be 7b83 5940
00000120: 1c06 9dbe e3a3 3fbe c332 bfbe 13d7 0340
00000130: 2b6b 993f e3ee 0b3f 98fe 3fbf c5fe d33d
00000140: c4ac 863f 5038 ccbe 7d42 13bf 3841 923d
00000150: af89 37be e6d1 19be 80a5 64bf 3b49 edbf
00000160: 45cd ac3f f370 f6be 734a ddbf bfb0 9bbf
00000170: 263c 863f 3ed8 ad3f 934a 963f 2c61 14c0
00000180: 058f 72bf 2b0f b53e 40c1 df3f 690c 42bf
00000190: 4b57 5dbf 0fe4 e33d 19e7 bdbd de2b c6be
000001a0: 8979 ddbf fc21 5ebf 2a8b d23f 7212 17be
000001b0: faa9 43bf 8a0e 303f 5179 68be f507 b3bf
000001c0: 4461 f93c c095 ddbc 2f56 533e 848d b7bf
000001d0: 5ddb 85bf df41 acbf b113 be3f 4bbe 92bf
000001e0: e6fc e6bd 4041 e1be 7324 b43f 9308 283f
000001f0: 5bdc 2040 d3cc 16c0 bad4 49bf e64b 153f
00000200: 1d16 07bd 92d4 9f3f 1a0d 87be e370 f4be
00000210: d994 52bf 4ea0 afbf c483 593f 42a2 653e
00000220: 917d 353f 32a5 f33f 3c93 45be e588 ce3e
00000230: cd24 28bf ebff 5e3f aff3 7bbf da06 113e
00000240: 1cb1 0ebf ba32 ccbf 3918 ccbf 857e 23bf
00000250: f514 cebd f394 d3bf 76b1 863f 03e4 a03f
00000260: 828f 6a40 2749 4a40 4805 a73f 75b1 0bbf
00000270: 2564 c63e a708 04c0 9147 bf3f d73f 3ec0
00000280: ec40 163d ac38 4240 1eb3 7e3f bb3c 1d3d
00000290: 02a5 b73f b35e 5c3f e404 70bf 3f5f 833e
000002a0: 9d85 af3f f3a8 2abf d2cc 833f b696 613f
000002b0: b893 7fbf 6093 5abf a7bb f53f 780a b3bf
000002c0: a97d 77bd 82b1 ccbe 7b90 bd3d d5d8 e0bf
000002d0: c65e 1940 1468 d93e 0495 a23d 1be0 fa3e
000002e0: a98b 6a3f 03f1 2ebf 52a1 403f 80f6 acbf
000002f0: d489 32bf 4cf8 583e c509 4040 deb2 eb3e
00000300: e95f 97bf 6333 a5bf b2e8 863f 78ed e33e
00000310: 7792 9ebf a166 3f3e cc40 353e b483 0a3f
00000320: 573e a4bf 1624 a5be b03f 49bf 080a acbe
00000330: 62f3 a63f 6517 823e eb09 a33f d14e cfbf
00000340: 1c91 a1bf d89f d9bf 1073 adbf 7222 3dc0
00000350: b3f4 acbf 3574 aebf 0e11 66be 6391 173e
00000360: 2c94 d8bf 187e f6bc 1c35 e63f db8d 093e
00000370: 8c3b 5dbf 8b5c dabf 6f1d 35bf 3f4c ba3e
00000380: 6fa8 c3bf 124c cdbf 4c5c d4bf c040 e2bf
00000390: 19cf 37be 06e1 c63e a2f1 82bf a4ed de3f
000003a0: 22ee c03f da6a 2fbf 2bb1 f83f c710 0f40
000003b0: 83eb 0140 c984 fcbf 0da8 3bbd 95de 643e
000003c0: 780e 3bbf 2818 be3d 8618 7e3f 9854 6f3f
000003d0: 03b3 01c0 52c2 6940 e762 a43f 47a8 a8bf
000003e0: 517c 06bf 1d9c 883f 8a7e 713c dfe0 123f
000003f0: bcde ab3f 52ba c6bf 671d 0a40 d255 04c0
-1.8181274 0.24046457 0.4503503 -0.3541228 -0.7803107 -0.41491938 0.20962417 -0.0066933865
-0.641065 -0.5667463 0.68393546 -0.59324634 0.13859327 -0.59274215 -0.3712427 -0.061415166
-0.04311649 -0.43083945 -0.703914 1.1795013 -1.313684 1.2528862 -1.3262701 0.5746323
0.04021704 0.45784917 1.0928339 -1.4985621 -1.199322 0.5329077 0.8151876 -0.7255782
1.0665687 -0.33802098 0.26031482 -0.40121493 0.22573115 1.3502519 0.9204817 -0.009120879
-0.09447538 -0.6378412 -0.25910306 0.3020024 -0.004555517 2.1634212 -0.833182 0.043650202
2.498128 0.73600626 0.62639755 4.137006 2.6531565 1.5083919 -0.5458222 -0.6233616
1.0960202 0.15663418 0.009568386 -0.08780893 0.0137697095 -1.3571783 -0.22632469 -1.7437246
0.9326101 0.7980035 -0.68867874 -0.37182474 -1.6976565 1.0237871 -0.31673098 3.39865
-0.30668724 -0.18714862 -0.37343416 2.060002 1.198583 0.5466139 -0.74997854 0.10351328
1.0521474 -0.39886713 -0.5752333 0.07141346 -0.17923616 -0.15021476 -0.8931503 -1.8537973
1.3500143 -0.48133048 -1.7288345 -1.2163314 1.0487106 1.3581617 1.1741508 -2.318431
-0.9474948 0.35363135 1.748085 -0.75800186 -0.86461323 0.11127483 -0.09272594 -0.38705343
-1.7302715 -0.86770606 1.644872 -0.1475313 -0.7643124 0.68772185 -0.22702529 -1.3986803
0.030441888 -0.027048945 0.20638345 -1.4340062 -1.0457569 -1.3457602 1.4849759 -1.1464323
-0.11278705 -0.43995094 1.4073623 0.65638083 2.5134494 -2.3562515 -0.7884022 0.58318937
-0.032980073 1.2486746 -0.26377183 -0.47742376 -0.82258373 -1.3720796 0.84966683 0.22425178
0.70894724 1.9034789 -0.19294447 0.40338817 -0.65681154 0.8710925 -0.98418707 0.1416277
-0.55739 -1.595298 -1.5944892 -0.6386493 -0.10062591 -1.6529831 1.0522907 1.2569584
3.665009 3.1607149 1.3048487 -0.5456765 0.3874828 -2.063028 1.4943715 -2.9726465
0.036683008 3.034709 0.9949206 0.038387995 1.4347231 0.86082 -0.9375746 0.25658605
1.371265 -0.66664046 1.0296881 0.8812059 -0.99834776 -0.85381126 1.9197892 -1.398757
-0.060422573 -0.39979178 0.09256073 -1.7566172 2.3964095 0.42462218 0.07938579 0.48999104
0.91619354 -0.68336505 0.75246155 -1.3512726 -0.6974156 0.21188468 3.0005963 0.46034902
-1.1826144 -1.2906307 1.0539763 0.44517112 -1.2388448 0.18691494 0.177005 0.54107213
-1.2831525 -0.32254094 -0.78612804 -0.33601403 1.3043025 0.25408474 1.2737402 -1.6195928
-1.2622409 -1.7001905 -1.3550739 -2.9552274 -1.3512176 -1.3629214 -0.22467443 0.14801554
-1.6920218 -0.030089423 1.7984958 0.1343302 -0.86418986 -1.7059492 -0.7074804 0.36386296
-1.5285777 -1.603884 -1.6590667 -1.767601 -0.17950095 0.38843554 -1.022999 1.7416272
1.5072672 -0.6852242 1.9429067 2.235399 2.0299995 -1.9728023 -0.045814563 0.22350533
-0.7306895 0.09281951 0.9925617 0.93488455 -2.026551 3.6524854 1.2842683 -1.3176354
-0.5253344 1.0672642 0.014739642 0.57374376 1.3427348 -1.552561 2.1580446 -2.067738

bn1.running_var f4 [512]
00000000: ec5f a140 5c8d f240 81e4 0c40 a1a8 2941
00000010: 4c06 4740 72b9 ad40 2ee9 e840 3e20 cc40
00000020: 6577 4240 be62 dc40 35e3 d540 427d 7641
00000030: 373c 1b41 e44e ff40 43a6 ec3f ada7 2e41
00000040: a98f 073d 1e6e b540 71cc 6d41 d1c6 a340
00000050: da4f 3741 681b a940 72fe 0041 a7d6 df40
00000060: 94d7 1340 011a a941 1bc5 8540 a1ce 7640
00000070: 7931 9b3f adac c13f 48e2 9b40 9b54 0240
00000080: 0ffa 9841 a9c9 7840 ded5 b040 41e9 5940
00000090: 2d5b 6440 2433 e440 deff 7641 d621 4f40
000000a0: c934 7f41 bd36 9a40 0a5d 3840 64a0 1c41
000000b0: 4467 c040 f420 3c40 8125 aa40 d280 ab40
000000c0: 6c87 6740 cac1 8341 b5fc eb40 438d 2f40
000000d0: 76d2 4a40 6ace e341 9a29 4c41 4ce0 0c42
000000e0: 7deb ec3f 1e2c b340 2f46 0a41 1c54 e840
000000f0: bf7e bc41 e867 b940 751f 4740 36aa 8c40
00000100: b4f0 563f cf5e c040 67cf 3141 ef47 3f41
00000110: e559 ba3f c3c3 1541 6a43 b040 a31f 1940
00000120: 6ba4 f43f 845e 343f abdc b040 7b33 4e41
00000130: 0664 8641 e6ce 8840 055a a53f f6a3 9540
00000140: 02ee de40 493c 8b40 200f 1f41 f09d 0541
00000150: 6bc5 0641 254f 0641 52e4 5e41 21a4 dd40
00000160: 00ec 1341 d113 9640 a274 7e40 3d0a 8241
00000170: d692 8b40 c43e 3640 d781 b640 bfb8 ff40
00000180: 4373 cd40 a84b 0540 0e38 b840 f2d2 8040
00000190: c0f6 1d41 e733 5241 0a9e 2541 a3e9 8540
000001a0: dea4 b23f 512b d640 88a4 863f 0d33 d140
000001b0: 5155 6f40 2ca7 5240 b225 6d3f 9c26 8741
000001c0: 30c1 a23d 8d37 f440 4634 f740 9b33 7f41
000001d0: 0487 2541 4fe3 ae3f bf48 2341 89cb 7e40
000001e0: bed4 1e41 2fda dc40 9b00 7040 adac 0941
000001f0: cfcd 1f40 0d5f 4740 83cb ec40 d320 0740
00000200: 2e7f 9f3d afad 3040 1b83 7740 dc37 e440
00000210: 8400 f840 5feb 3441 4c1f ee40 ca00 c940
00000220: 60df 5c41 46df 0d42 6af7 9540 8747 7240
00000230: 259f 4a40 42aa de40 0512 5440 4948 9640
00000240: 0d82 ac40 872e 8f40 2411 5740 2ed7 7940
00000250: 76d5 983f 1caf dc3f 00b4 1b40 92fe 0141
00000260: a8db 9f40 0c7f 3140 def1 2440 9e60 c940
00000270: 694d 0640 382c 5041 0eed 0640 58cb fb40
00000280: 4208 bb3d f5fc 4240 facb d340 fb47 9a41
00000290: bc9d 8140 8f23 d040 4fe2 1640 8762 5441
000002a0: 4461 b040 025c a240 56b5 993e ce95 fb3f
000002b0: 43dc b23f b682 9f40 7375 aa40 7286 3f41
000002c0: df12 453d a4e6 3241 e634 1a41 4b8d 3f40
000002d0: 5ab5 1841 66c5 3241 10a5 ab41 1b2a 5540
000002e0: 5560 f340 59fc 8f40 1689 5141 1019 1d41
000002f0: 1a1a c040 146d b340 e274 9841 7a0f 8440
00000300: e242 4b40 d008 6941 e6ab 7040 9082 6f40
00000310: a95b 7e40 a693 b140 ce7f 4540 7c55 4641
00000320: 6fd8 d340 9806 8041 cfb3 8840 8bd5 7241
00000330: 0a15 b340 1dcc b13d 4b64 8b41 fab5 cb40
00000340: 084a 4640 8b27 fe40 ee2d bd40 ff91 2740
00000350: ded9 7840 156c 4c40 e5e6 7540 1222 4b40
00000360: 0f01 c640 7334 d240 d106 2a41 43d0 6340
00000370: d604 6240 c9a2 7840 56c0 3040 9f4b 4e3f
00000380: c8ec 9f40 1584 1f41 b062 8b40 192b 5141
00000390: c1d3 d840 065b 3341 f2d2 ec40 fba7 9c40
000003a0: 7e1e c441 c465 da3f 3710 9940 e7f7 2741
000003b0: 4a1d 5d40 9e33 2141 6a41 4f40 11ae c63f
000003c0: 52ca 5240 2332 2f3e d59a 9240 9fbe 4f40
000003d0: 6661 2f41 a572 b340 3695 2941 53df c740
000003e0: c05f 0041 56e4 7f40 c371 f440 e698 2640
000003f0: 1106 0941 20e2 2740 162c ce40 4b5c fa40
5.042959 7.579756 2.2014468 10.603669 3.1097593 5.4288874 7.2784643 6.378936
3.0385373 6.8870535 6.683985 15.4055805 9.702201 7.97838 1.8488239 10.915936
0.03309599 5.669692 14.862412 5.1180196 11.456995 5.2845955 8.06212 6.9949527
2.3100328 21.137697 4.1803107 3.8563616 1.2124473 1.5130821 4.871372 2.036414
19.122099 3.8873084 5.526107 3.4048617 3.568065 7.1312428 15.437468 3.2364402
15.950387 4.819182 2.8806787 9.789158 6.0126057 2.9395113 5.317078 5.359475
3.6176405 16.469624 7.374598 2.742997 3.1690955 28.475788 12.760157 35.21904
1.8509365 5.5991354 8.642135 7.2602673 23.561888 5.793934 3.111295 4.3957777
0.83961034 6.0115733 11.113135 11.955062 1.4558684 9.360293 5.5082293 2.392556
1.9112676 0.7045672 5.526937 12.887568 16.79884 4.275256 1.2918097 4.676265
6.9665537 4.351109 9.941193 8.351059 8.423198 8.394322 13.930742 6.9262853
9.245117 4.689919 3.9758687 16.255 4.3616743 2.847581 5.7033496 7.991302
6.42032 2.0827427 5.7568426 4.02575 9.872742 13.137671 10.351084 4.18477
1.3956563 6.6927876 1.0518961 6.537482 3.7395823 3.2914534 0.92635643 16.893852
0.07947004 7.631781 7.725131 15.950099 10.345463 1.3663119 10.20526 3.9811728
9.926939 6.9016337 3.750037 8.604657 2.4969366 3.1151764 7.3998427 2.1113784
0.077879295 2.7606008 3.867377 7.131819 7.750063 11.307464 7.4413204 6.2813463
13.804535 35.46804 4.686452 3.7856157 3.1659634 6.9582834 3.3135998 4.696324
5.3908753 4.4744296 3.3604212 3.9037585 1.1940143 1.7240939 2.4328613 8.124651
4.9955635 2.7733793 2.5772624 6.293044 2.0984747 13.010796 2.1082187 7.868572
0.091324344 3.0466893 6.6186495 19.285147 4.0505047 6.5043406 2.3575628 13.274055
5.5118732 5.0737314 0.3002116 1.9655092 1.3973469 4.984706 5.326837 11.970324
0.0481137 11.181309 9.637915 2.9929988 9.544275 11.173193 21.455597 3.330695
7.6055093 4.499554 13.095968 9.818619 6.003186 5.607065 19.057072 4.126889
3.1759572 14.5646515 3.7604918 3.742344 3.9743445 5.5492735 3.0859256 12.39587
6.62017 16.00322 4.2719493 15.1771345 5.5963182 0.0868151 17.423971 6.365964
3.0982685 7.942327 5.9118567 2.618286 3.8882976 3.1940968 3.8422177 3.1739545
6.187629 6.5689025 10.626664 3.5595863 3.5315452 3.8849356 2.7617393 0.8058414
4.997654 9.969747 4.355797 13.073022 6.775849 11.2097225 7.40075 4.8955054
24.514889 1.7062306 4.7832294 10.498023 3.4549127 10.075102 3.2383676 1.5521871
3.2935987 0.1710897 4.5814004 3.2460096 10.961279 5.6077447 10.598928 6.2460113
8.023376 3.9983115 7.638887 2.6030822 8.563981 2.6231766 6.4428816 7.823766

fc2.weight f4 [256, 512]
00000000: c0d0 aabe 8025 91be c2e1 29bc db41 d0bd
00000010: cf02 a43e 36c4 e43e 26d9 933d ca04 1b3d
00000020: 4eba 60be f919 4ebe d6cd d2be 5833 433e
00000030: a06c 97bd 5e68 193f 26e2 9c3c aab0 7b3d
00000040: e9ba e73b c283 81bd a009 ab3c 6d1e bd3e
00000050: 6f5d c4bd a2fe dbbd ad7b dc3c 2ef4 263d
00000060: 113e 1a3d 7ef3 153e 0d9f a23e 6a12 39bd
00000070: 9255 3fbc e909 e83d a8dd aebe c7e2 b7bd
00000080: f2a0 103d 8eb0 db3d f147 aabe aac3 2d3e
00000090: eeb3 b8be e353 1f3e c4a7 19be 990b 173d
000000a0: 8c97 e03e 1aa2 8bbd 0641 8bbe 341d 0a3e
000000b0: 886d f23d 556f 453e 0747 df3d 5fc8 1bbf
000000c0: 8ac4 2e3f 4a34 14bf abb5 763e 052f 303f
000000d0: 151f c53e dca8 90bd 7592 1abe ef43 50be
000000e0: 833e 103e 6afb 233e bd0b 183f f0cc 523e
000000f0: f1ad 773d 3139 6c3e b206 efbd bf63 6a3e
00000100: 66e1 3dbd 80f6 47be cd75 adbe bb79 1e3f
00000110: b663 b53e 0a38 733e ddfe 12bd 7439 75be
00000120: 1f82 30be 8108 24bc 4fb2 1abe e293 d43e
00000130: d18d bc3e f1b3 c2be 319e 2c3c 6839 dbbe
00000140: 29e6 c6be d6ea 48be 73c1 bfbe 72f5 0dbc
00000150: a5f4 14bf 3643 42be 09b6 99bc dbb6 813e
00000160: 33cb d3bd 2d95 113e 4944 44be 26e1 833e
00000170: 0d11 023e 8ede 733d d1f6 13bf 1e48 88bc
00000180: 7285 c93e 5f56 97bd 5487 903e 9d33 73bd
00000190: 46bf 353e c987 38bf 673c a43e 87ab bfbe
000001a0: db51 013e 0639 133e 4bb0 aebe 2904 943d
000001b0: 4025 2abb f8ac ccbe 6479 1fbe bb7f 333f
000001c0: 1c71 76bd cf65 103c 194a 0ebe 192c 063e
000001d0: f2d2 bcbe f1a6 8f3e 9510 abbe 0874 24be
000001e0: ce5f ccbe c8e4 13be dc54 0abd f26e 04be
000001f0: ea97 8a3d 802e b139 51dc 093e b401 bb3c
00000200: f8a3 213d ecc3 adbd 01be b43e 0f20 f3be
00000210: 03b6 04bf ff14 28be 99e0 7dbe 1308 78be
00000220: a979 53be ecbb 31bd cc95 87be 98b4 11bf
00000230: 2bd2 80be 7763 7abe 64b3 6bbc 9e9a 473d
00000240: 671a d2be f5e9 e5bd 0d62 05bd d0f0 a53e
00000250: 4073 23bd 580a ac3b e4f3 973e eb77 323e
00000260: b14d b13e 44c1 733e 217a c7be 0c7e 473d
00000270: 0652 7e3d dd6f 9d3e 2189 edbe f6d2 f1be
00000280: 1b62 c93c 7727 29bf 4fd7 21bd 720c d8be
00000290: e948 203c 109e 6a3d 7f65 afbe 1449 a2be
000002a0: dd62 34be 8df3 443e a820 1c3d 39db a53d
000002b0: d9f9 5e3e bbe4 0a3e 7508 29bf 3b2a ccbe
000002c0: b147 bf3c 7b37 55be c60e b4be 47d4 c5bd
000002d0: f575 f13b 8f4f 283f 7f0e 1cbe d835 203e
000002e0: 681e c4be 7e5c 4dbf 9277 29be 7f95 113e
000002f0: 1854 f83e 629f 80bc 2d2a 233f 6215 4dbe
00000300: d29a dc3d 97ef 8f3e b0ac 833e 32d2 e9bd
00000310: e141 34bd 5682 f6ba 94ac debe dfa3 ec3d
00000320: bc5e 58be d955 3bbe e94c c2bc 9dcd c6be
00000330: 913e 2cbf df34 e3bc 933b 783d b37f b33e
00000340: a99a 1bbe 9874 813e d589 94bd 761e b73e
00000350: cca1 243e 0950 823e 7c95 ccbc 6534 3fbf
00000360: 612d 9abe a14b eb3b 8efe 6bbe 57b4 17be
00000370: d842 08be 14bc 00be e0b6 9fbe 1000 373b
00000380: e330 2ebe 5a91 7abe c1d3 4c3c 5020 22be
00000390: 9c79 533e 7659 37bf 30fc b9be 5874 58bd
000003a0: a189 88be 8230 513e be64 803d 4542 9b3e
000003b0: 4630 6e3e 54d0 123e 3c4e 683e 6042 c1bd
000003c0: 57a0 d9bd da74 e43b 240d 003f aa52 60be
000003d0: 2452 bc3e 2eec 16bd 2f09 97bd dae4 fbbe
000003e0: e242 32be cbaf 043d 6cee d6bd 1fd5 4a3e
000003f0: f6cf f2bd 598e 663e 5417 fb3e 5c44 723e
-0.3336239 -0.28348923 -0.010368766 -0.10168811 0.32033393 0.44680947 0.07219152 0.037846364
-0.2194607 -0.20127095 -0.41172665 0.19062555 -0.073937654 0.59924877 0.019150805 0.061447777
0.007071842 -0.06323959 0.020878613 0.36937276 -0.095881335 -0.10741927 0.026914442 0.04076021
0.037656847 0.14643666 0.3176197 -0.045183577 -0.011678116 0.11330015 -0.34153485 -0.08978801
0.03530974 0.107270345 -0.33258012 0.16969171 -0.36074775 0.15559344 -0.15005404 0.036876295
0.4386562 -0.06818028 -0.27198046 0.13487703 0.11837298 0.19280751 0.10902219 -0.6085262
0.68268645 -0.57892287 0.24092738 0.68821746 0.38500276 -0.07063457 -0.15094931 -0.20338415
0.14086346 0.16013876 0.5939291 0.2058599 0.060468618 0.23068692 -0.11671199 0.22889613
-0.046357535 -0.19527626 -0.33878937 0.61904496 0.35427636 0.23751846 -0.035887588 -0.23947698
-0.17237137 -0.010011793 -0.15107082 0.41519076 0.36826947 -0.3802791 0.010535763 -0.42817235
-0.38847473 -0.19620833 -0.37452278 -0.008664476 -0.581858 -0.18970951 -0.018763559 0.2533482
-0.103414916 0.14217062 -0.19166674 0.25757712 0.12701817 0.059538417 -0.57798487 -0.01663595
0.39359623 -0.07389521 0.28228247 -0.059375394 0.17748746 -0.7208219 0.32077333 -0.37435552
0.12628882 0.14377221 -0.34118876 0.07227356 -0.0025962144 -0.39975715 -0.1557365 0.70116776
-0.060166463 0.008813336 -0.13895454 0.1310276 -0.36879689 0.28057054 -0.3341109 -0.16059887
-0.39916843 -0.14442742 -0.033772334 -0.12932947 0.067672566 0.00033794716 0.1346295 0.02282796
0.039463013 -0.08484635 0.3530121 -0.47485396 -0.5184023 -0.1641426 -0.24792708 -0.2422183
-0.20651878 -0.043392107 -0.26481473 -0.5691619 -0.25160345 -0.24452005 -0.014386032 0.04873144
-0.41035768 -0.112262644 -0.03256421 0.32410288 -0.039904833 0.0052502565 0.2967826 0.17428558
0.34629586 0.23804194 -0.38960364 0.048704192 0.062089942 0.30749407 -0.46393684 -0.47231263
0.024582913 -0.66075844 -0.039511975 -0.42196995 0.009783008 0.057279646 -0.34257123 -0.3169638
-0.17615838 0.19233532 0.03811708 0.08098454 0.21774997 0.13563816 -0.6602853 -0.3987597
0.023349615 -0.20821945 -0.3516752 -0.09659629 0.007368798 0.65746397 -0.15239905 0.1564554
-0.38304448 -0.80219257 -0.16549519 0.14217184 0.48501658 -0.015701 0.6373623 -0.20027688
0.10771717 0.2811248 0.25717688 -0.11417045 -0.04400814 -0.0018807154 -0.43491042 0.115546934
-0.21129888 -0.18294467 -0.023718314 -0.38828745 -0.6728297 -0.027735172 0.06060369 0.35058364
-0.15195717 0.25284266 -0.07252852 0.35765427 0.16077346 0.25451687 -0.024973623 -0.7468932
-0.30112746 0.0071806465 -0.23046324 -0.14814888 -0.13306749 -0.12571746 -0.3119421 0.0027923621
-0.17010836 -0.2446951 0.012501658 -0.15832639 0.20651859 -0.7162088 -0.36325216 -0.05284533
-0.26667503 0.2042866 0.06269215 0.30323997 0.23260602 0.14337283 0.22686094 -0.09436488
-0.106262855 0.0069719376 0.5002005 -0.21906534 0.36781418 -0.036846332 -0.073747985 -0.49198037
-0.17408326 0.03239421 -0.10494694 0.19807862 -0.11856072 0.22515239 0.49041235 0.2365889

fc2.bias f4 [256]
00000000: 9f7a d3ba efa9 12bd 32df e2bc d745 373c
00000010: 59d4 273d 510e 023d dfe0 b5bc ec5c 2cbd
00000020: 93ac dabc 7b14 b0bc a99a 1ebd dafb 88bc
00000030: 7f65 e9bc 6a66 bdbc 4ac8 0d3c 0877 28ba
00000040: f40d 92bc 1d21 953c aefb e13c 3728 343c
00000050: 7436 cdbc 849c c83c d0bb f13c 2453 25bd
00000060: 8c05 19bd 047b 05bc c2ef a8bc 5748 de3c
00000070: a347 313d b926 d93c 89f7 15bc edf9 7fbc
00000080: 45f8 0bbd e68f 26bb 1ef3 13bd baa8 8ebc
00000090: a107 bb3b 9d5e 223d e7de 9bba 5a81 fcbc
000000a0: 19d9 a4bc 842f f4bc 3b09 24bd 6990 6ebb
000000b0: 1556 6bbc 3a93 333d cf57 b03c ff11 0d3d
000000c0: e0a2 d0bb 487e 0c3c a49e 04bd e290 b83c
000000d0: 56c6 fbbc 1b6e 333c 8bfd 6bbc a83b d8bb
000000e0: b951 613c 945a 8ebc efca 1d3d 006e d83a
000000f0: cd36 d93b 921c 983c c962 b73c dea6 10bb
00000100: 288a 2f3c bfa1 4cbc 0021 d53c 8549 b93b
00000110: b676 083d 2000 203d 30d1 853c e28f b53c
00000120: aaae c4ba 7228 533b be1b 253d ffac 83bc
00000130: 77a6 293d 3c8a 1d3d ee41 6abb cb84 2b3d
00000140: 37a9 183d f64e 0d3d 1ad9 113d 07fe 493c
00000150: af6e 223d cd65 e6bc f4c2 40bc e050 c73c
00000160: dba7 293d beb6 25bc 5d5b 2a3d 3afd aa3c
00000170: ac55 9e3a 9632 1abd b95d 29bd 359b 8abb
00000180: 8c78 cabb eb8a aebc 4ab3 5a3c 0df3 193d
00000190: 2bce 0e3d 4ab0 cf3c 5287 ce3b 3572 a4bc
000001a0: 7953 be3c 3a8e b9bb 7247 573c 9d7f ce3c
000001b0: cde9 163d ee62 3f3c fab4 023d 3dae 443c
000001c0: a9e1 a9bc ccb6 9cbc 4bcf 2d3d 20ce 99bc
000001d0: 7514 ffbc 077b 1c3c 8fce 293d 49ca dbbc
000001e0: 36fb c33c ce5c 28bd 3b9f 133c c817 d7bc
000001f0: 9321 b33b b5c0 dcbc 410e e0bc 1aea c33c
00000200: 30d8 73bc 30d1 83bc dc85 ccbb ad61 3439
00000210: 0506 0cbd 0c8d 19bd 7dc5 2a3d a38b e53c
00000220: e9bc f1bc fd02 16bd 10dc 243d 0aa3 103c
00000230: c0a8 01bd 60f2 cb3a c81f febc 1390 ccbc
00000240: dd06 5fbc ef91 9ebc c458 df3c 11e6 183c
00000250: 441d aa3c 9522 043d 0599 ac3c 07fd cfbb
00000260: a2db 4abc 2c0e 6dbc f1ce b7bc dc06 fdbc
00000270: f361 a5bc 33f3 77bc 4ae1 063d 479e 51bc
00000280: 718d 3e3c c566 e83c 1881 41bc 8784 963c
00000290: 0751 343d 1ea1 9d3c 3f99 1e3d 395e 1c3d
000002a0: d042 15bd 5aed 303d b95f c3bc 1ea8 fdbc
000002b0: 58bb 80ba df7a 053d eb0a d73c e2da 563c
000002c0: 4345 343d 4328 0a3c 700c bcbc 25f2 263d
000002d0: 9865 c93b 6c98 2fbb 05f2 9bbc 5e0d fabc
000002e0: d897 a2bc 64cc b7bc 87a5 313d 3dd1 04bd
000002f0: 3bbb f4bc 8583 923c 74da 0abd d742 c7bc
00000300: 03bc 27bd 43b2 213d 3bd6 fd3c e9e5 b3bc
00000310: d2fc 693c 8bbe adbc 1f56 b2bc b368 003c
00000320: 3011 d53c 86d0 e6bc ba3b 333d 3aba 6b3c
00000330: d427 303d da17 fd3b ad33 ad3c c1e8 f8bc
00000340: eb9c d13c c5b4 36bc 4fa4 b03c 89b7 023d
00000350: 670e b93c 05b0 443c c7ff 30bd bf1e 13bd
00000360: 9cdc 2e3c d164 67bc d757 ef3c 75f5 1abd
00000370: cb61 d0bc 3608 313c a9e5 5a3c 97b3 55bb
00000380: b545 96bc 11e4 1dbd 0420 05bd ce05 413c
00000390: 0bfd 22bd 0c3a 82bb d53b c53c 84c8 efbc
000003a0: 2fc4 1dbd 28a9 5e3c 754a 3f3c 990a 873c
000003b0: 76f2 263d 5d5d 0f3d c4f2 76bc 1dfb 0abd
000003c0: 4dd6 abbc a4e3 213c af1e df3c d999 47bc
000003d0: 78e1 db3c bf00 fb3b d395 d9b9 a293 9f3b
000003e0: 2699 f4bc 08fa 003d d6e9 ea3c ec2b d33c
000003f0: 259d f2bc e8ee f33c e970 17bd 3e87 fe3b
-0.0016134566 -0.035806593 -0.027694318 0.011186085 0.040973995 0.031751934 -0.022201953 -0.042080805
-0.026693618 -0.02149414 -0.038721714 -0.016721655 -0.02849078 -0.023120124 0.00865371 -0.00064264284
-0.017828919 0.018204266 0.02758583 0.010995916 -0.02505038 0.024488695 0.029508501 -0.040362492
-0.037358806 -0.008147005 -0.020622138 0.027134104 0.04328121 0.026507722 -0.009153255 -0.015623552
-0.034172315 -0.002541536 -0.036120526 -0.01741444 0.0057076965 0.03964101 -0.0011891992 -0.030823398
-0.020123051 -0.029807813 -0.040047865 -0.0036401993 -0.014363785 0.043841578 0.021526245 0.03444099
-0.0063670725 0.00857503 -0.032377854 0.022530023 -0.030734222 0.010951544 -0.014403711 -0.0065989085
0.013752394 -0.017377175 0.03852361 0.0016512275 0.006628847 0.01856831 0.022385972 -0.0022072117
0.010714091 -0.012489735 0.026016712 0.005654516 0.033316337 0.03906262 0.0163351 0.022163335
-0.0015005667 0.0032220152 0.04030966 -0.016073702 0.04141852 0.03846191 -0.0035744864 0.041874688
0.03727075 0.03449913 0.035607435 0.012328631 0.039656337 -0.028124714 -0.01176523 0.024330556
0.041419845 -0.01011437 0.041591037 0.020872701 0.0012079976 -0.0376459 -0.041349147 -0.004229928
-0.006178921 -0.021306476 0.01334841 0.037585307 0.034864586 0.025352616 0.0063027525 -0.02007399
0.023233162 -0.0056627067 0.0131395925 0.025207335 0.036844064 0.0116813015 0.031910874 0.012004432
-0.020737486 -0.019130133 0.042434018 -0.018775046 -0.031137684 0.009550816 0.041456755 -0.026829856
0.023923498 -0.04110413 0.0090101315 -0.026256457 0.005466649 -0.026947359 -0.027350547 0.02391534
-0.014883086 -0.01609096 -0.006241543 0.00017202525 -0.03418543 -0.03748803 0.041692246 0.028020686
-0.029509025 -0.036623944 0.04024893 0.008827934 -0.031655073 0.0015559904 -0.031021014 -0.024971044
-0.013612476 -0.019356696 0.027264006 0.009332196 0.020765908 0.032259542 0.02106906 -0.006347302
-0.012381466 -0.014468711 -0.022437545 -0.03088706 -0.020188307 -0.015133667 0.032929696 -0.012794084
0.011630402 0.028369317 -0.0118105635 0.01837374 0.044022586 0.019241866 0.038720366 0.038175795
-0.03644067 0.043195106 -0.023849355 -0.030963954 -0.0009821458 0.032587882 0.026250323 0.013113709
0.044011366 0.008432451 -0.02295515 0.04075827 0.006146144 -0.0026793731 -0.019036302 -0.030523952
-0.019847795 -0.022436328 0.04337075 -0.032426108 -0.029874435 0.017884979 -0.03389974 -0.024323864
-0.040950786 0.039476644 0.030985942 -0.021960216 0.0142814685 -0.021209022 -0.021769581 0.007837462
0.026009172 -0.028175604 0.04375813 0.014387662 0.043006733 0.0077237906 0.021142805 -0.030384423
0.02558752 -0.011151497 0.021562723 0.031913314 0.022589875 0.012004857 -0.04321268 -0.035917994
0.010672715 -0.014123158 0.02921669 -0.037831742 -0.025437256 0.01080518 0.013360419 -0.0032608265
-0.018343786 -0.03854758 -0.032501236 0.011781169 -0.0397921 -0.003974205 0.024076382 -0.029270418
-0.038517173 0.013590135 0.011675467 0.016484546 0.040758573 0.035001148 -0.015072528 -0.033930887
-0.02097621 0.009880934 0.02723631 -0.012182676 0.02684091 0.007660001 -0.00041501093 0.004869894
-0.029858183 0.03148845 0.028675955 0.02577778 -0.029615948 0.029777005 -0.036972914 0.007767587
