critic_net.pth (torch_old, 614281 bytes, 13 tensors)

fc1.weight f4 [512, 33]
000000 a3 d8 87 bd 64 16 16 be be 69 45 3e 3a 83 c6 bd
       -0.06633117 -0.14656979 0.19278619 -0.09692998
000010 6a 4c 5f bd 77 cf af 3d 23 df 82 3d 2e 36 9c 3e
       -0.054516234 0.08584493 0.06390216 0.30510086
000020 79 69 ee 3e 4a ae a3 bd e1 b5 62 3d fa 65 13 be
       0.46564844 -0.079922274 0.055349234 -0.1439437
000030 0a f4 4a 3d e4 f5 86 3e c8 dd 8b 3e 48 9f ce 3e
       0.04954914 0.26359475 0.27317643 0.40355897
000040 37 f9 27 be 3c 8e a2 3e 38 e8 0d 3d a8 fd 0d 3d
       -0.16403662 0.3174914 0.03464529 0.034665734
000050 5d 4d 90 be ed 35 b5 bd d2 12 0d 3d 45 dc 97 3e
       -0.28184023 -0.08848176 0.034441777 0.2966024
000060 87 dc ef bd f5 6c d8 3e 11 4e 55 bd 1e c2 24 bd
       -0.11711984 0.42270628 -0.052076403 -0.040224187
000070 8e 07 a0 bc ca a9 5b bc 43 d5 86 3c 48 d1 1c 3c
       -0.019534852 -0.01340718 0.016459113 0.009571381
000080 ac f0 99 bc 12 c0 c1 3e 1b b6 12 be b4 bf dc bd
       -0.01879152 0.3784185 -0.1432728 -0.10778752
000090 96 f9 86 bd d4 5f cb bb 57 ff 9a bd 62 d0 b7 bc
       -0.065905735 -0.006206492 -0.075682335 -0.022438232
0000a0 2c e3 06 3c 99 b0 c6 3d 79 be 2a be 70 21 26 3d
       0.008232873 0.09701652 -0.16674222 0.040559232
0000b0 20 31 2b 3e 11 90 53 3d 4c fc de be f7 d0 90 3e
       0.16717958 0.051651064 -0.43551862 0.28284428
0000c0 c1 03 a7 3e bb a0 ab bd 54 0e fd bc 00 42 34 3c
       0.32620052 -0.08380266 -0.030890621 0.011002064
0000d0 3f 22 e0 3d 00 d3 04 3d f6 67 84 3d df cc dd bc
       0.10944032 0.032427788 0.064651415 -0.02707523
0000e0 e6 81 03 be ff 5e a8 3d 16 d0 b1 3c df 26 94 3e
       -0.12842521 0.08221244 0.021705668 0.28935906
0000f0 8b 5b 89 bc 35 7b 63 be 37 69 b5 bc de 0c 3f 3b
       -0.016767284 -0.22214969 -0.022144897 0.0029151957
000100 9a 1a f3 3c de 94 de 3e 7c 4a 9b 3d 5c 4d 80 bd
       0.02967577 0.43472952 0.07582566 -0.06264755
000110 a6 e0 8c 3d 50 33 74 bd eb 05 d4 3d 99 5a ca 3d
       0.06878786 -0.059619248 0.10352691 0.098805614
000120 6c f9 2d 3d 41 97 3a bc c0 70 92 3d 54 da 0c 3b
       0.042474195 -0.011388601 0.071504116 0.0021492438
000130 cc e5 64 bd b3 3f dc 3b 99 97 e8 3c 2e 43 17 3d
       -0.055883214 0.0067214607 0.0283926 0.036929302
000140 ee 6e 6a 3e 92 dd 47 3e 4d f5 d3 bd d4 63 71 bd
       0.22893879 0.19518116 -0.10349522 -0.058933094
000150 ba 52 1f 3e f7 1f 82 3e 3b a2 13 bd cd 74 77 3e
       0.15558901 0.25415012 -0.036043387 0.2416565
000160 60 09 b2 3d 4a 62 ee bc ee 73 2d 3e 0b 35 39 bc
       0.086931944 -0.029099602 0.16938755 -0.01130415
000170 f4 4b 2a 3a fc 54 bf 3c 28 bf 0d be 4e 9f 72 bc
       0.0006496303 0.023355953 -0.13842452 -0.014808489
000180 17 81 d5 bc 90 0f 96 bc 57 9c 7a 3e b2 f3 3d 3e
       -0.026062531 -0.018317968 0.24473701 0.18549994
000190 84 71 f6 bd 60 02 94 bd f8 05 8f 3d 5d 6f bd bc
       -0.1203337 -0.072270155 0.0698356 -0.023124391
0001a0 c8 79 36 3e c1 5a 1c 3e e1 13 bb 3d 8c 20 83 be
       0.17819893 0.15268995 0.09134651 -0.2561077
0001b0 56 fc d3 3d be 53 1a 3e 74 f2 53 bd 00 f4 8a bd
       0.10350864 0.15071008 -0.051744893 -0.067848206
0001c0 6a 7b f9 3d 5f d0 3e bf 8b 87 58 be 26 50 ae 3e
       0.121817425 -0.745367 -0.21145456 0.34045523
0001d0 ef b7 25 bd 24 e4 be bd e9 df b7 3e 4b 62 50 bc
       -0.040458616 -0.09320858 0.35913017 -0.012718747
0001e0 52 a0 50 3d d9 17 2a 3c e6 d2 cf be 97 19 19 be
       0.050934143 0.010381662 -0.4059059 -0.14951168
0001f0 9f bf 97 bd 3b a2 67 3d d0 88 14 ba a1 3c 65 be
       -0.07409596 0.0565512 -0.00056661386 -0.2238641
000200 27 15 22 bd c1 75 d4 3c ac 18 47 bc 66 21 a0 bd
       -0.039570954 0.025935056 -0.012151878 -0.0781887
000210 19 98 78 be 5a 2d 75 be 7d 1b 6b be 38 2b cb be
       -0.2427677 -0.23943081 -0.22959705 -0.3968141
000220 94 56 75 3e e2 3e b1 bc ec 02 9d 3e 08 c1 f5 bd
       0.23958808 -0.02163643 0.30666292 -0.119997084
000230 f4 21 a4 3c 1f 8f ee bd 5f 07 0f bd 01 55 99 be
       0.020035721 -0.11648392 -0.03491914 -0.29947665
000240 dd bd 56 3c 40 ff 87 bd 8d b6 5c be 79 5c 7e be
       0.01310679 -0.06640482 -0.21554013 -0.24839963
000250 03 c5 73 be 26 2a 7b be b5 08 88 3e 7b 7a d6 be
       -0.23805623 -0.24527797 0.26569143 -0.4189032
000260 eb 7f 82 bd 4e b6 47 3d 1f 11 9c bb 09 f0 1e 3d
       -0.06372055 0.048757844 -0.004762783 0.038803134
000270 f2 3c a5 be e7 00 1c 3e fb da a1 bd 5a cb d0 3c
       -0.3227306 0.15234719 -0.07903095 0.02548759
000280 5d 31 75 be 68 61 39 3c 95 74 f3 3b 89 f4 1e bd
       -0.23944612 0.011314727 0.007429669 -0.038807426
000290 b1 f9 81 bf 90 35 56 be 34 e9 42 3e 6f 64 9b be
       -1.0154325 -0.2091887 0.19034272 -0.30350062
0002a0 8f 8d f7 bd c2 e1 9b bd c5 fe d3 bd e4 56 06 be
       -0.12087547 -0.07611419 -0.10351328 -0.13119084
0002b0 21 f1 0d be 74 b4 70 be 1e 93 54 bd fd 79 51 3e
       -0.13861515 -0.23506337 -0.051898114 0.20456691
0002c0 ba 7e 79 3e ea 17 e8 3e ab 8e e0 bd 91 cd ae 3e
       0.24364749 0.45330745 -0.10964712 0.3414121
0002d0 a0 c1 af be 3b f0 0f bf c2 e4 bf 3d 2f 6c 28 3e
       -0.34327412 -0.5622594 0.09369804 0.16447519
0002e0 7a df ce be c3 61 25 3d 29 b9 ec 3d b5 e3 b0 be
       -0.40404874 0.040376436 0.11558754 -0.34548727
0002f0 01 2c f0 3d a2 ee 83 3e 21 53 c6 bd 71 f2 49 bd
       0.11727143 0.25768 -0.09683824 -0.049303476
000300 c0 a8 88 bc 75 31 82 3e 92 70 a4 3c f0 87 f6 bc
       -0.016682029 0.25428358 0.020073209 -0.030094117
000310 58 12 6f 3c 08 f5 04 bb fb e8 05 be c8 57 39 be
       0.014591776 -0.0020287652 -0.13077156 -0.18099892
000320 db 12 91 bd 80 fa 53 bc f5 84 31 be 5e ec 77 bc
       -0.070836745 -0.012938142 -0.17335875 -0.015132038
000330 ad 46 e3 bd b6 4d d6 3e 5a da b4 3d fb 37 c8 3e
       -0.11097465 0.41856164 0.0883071 0.3910521
000340 39 93 b0 3d 81 d0 58 3f db 65 fe 3d 55 06 93 3c
       0.086218305 0.8469315 0.12421771 0.017947355
000350 f1 bf 62 3d 54 48 cc bc 23 4e 37 3e 05 bc e7 bd
       0.05535883 -0.024936832 0.179009 -0.11315159
000360 3d 64 9e bd 66 16 56 bd 9d 1d d0 be 90 e0 ea 3c
       -0.07733963 -0.052267455 -0.40647593 0.028671533
000370 87 11 5c be f8 41 fe 3d 07 21 23 be 88 93 52 bc
       -0.21491061 0.12414926 -0.15930568 -0.012852557
000380 df 15 85 3e 4c 8a 5e bb 6f 13 1b be 00 32 b6 bb
       0.2599325 -0.0033956943 -0.15144132 -0.0055601597
000390 02 2e 38 3c 32 40 ea 3c e3 65 3e bd 15 d5 18 bd
       0.011241438 0.028595064 -0.046483885 -0.037312586
0003a0 93 75 dd 3e f9 c7 91 3e 5c 6d e4 bd 57 72 eb 3e
       0.43253765 0.2847288 -0.11153671 0.45985672
0003b0 fc f5 01 3f df 8e 83 3e 78 6a 34 bd 48 13 d4 be
       0.5076597 0.2569494 -0.04404685 -0.4142096
0003c0 bc 86 23 3e 47 f1 39 be 31 f1 3c 3e 67 b2 86 bd
       0.15969366 -0.18158446 0.18451382 -0.06576996
0003d0 60 0e 0e be 9b 1c 0e be ca ce a4 3e fd d9 4c 3d
       -0.13872671 -0.138781 0.32189018 0.050012577
0003e0 47 12 46 be 31 ab 2a 3f e1 30 0e 3e de 08 0e 3d
       -0.1934291 0.6666747 0.13885833 0.034676425
0003f0 7b c0 2f 3e 30 9b 28 3e df b9 28 be a2 78 ee 3d
       0.17163269 0.1646545 -0.16477154 0.11644103

fc1.bias f4 [512]
000000 c5 ee 17 be db a4 1d 3e 5a ad 03 be 7c c5 97 bd
       -0.14837177 0.15394919 -0.12859097 -0.07410714
000010 b4 2d e3 bc 61 f4 86 ba 10 1d a3 bc 2b a5 04 3e
       -0.027731754 -0.0010296219 -0.019911319 0.12953632
000020 bc 5f 05 3e 05 6f 1e be 9d 6a 25 be 3b 6e 2e be
       0.13024801 -0.15472038 -0.16153951 -0.17034237
000030 52 6f 14 3e 88 0d ad bc 35 76 b0 bd 01 79 eb bd
       0.1449559 -0.021124616 -0.08616296 -0.11497689
000040 a8 61 ba 3c c5 05 4c 3d 62 81 cc 3d 86 e0 0f 3e
       0.022751644 0.04981019 0.09985615 0.14050493
000050 30 80 1e 3e 55 a7 ed bd 2d a1 16 bc 5b ab e2 bd
       0.15478587 -0.11604182 -0.009193701 -0.1106784
000060 ef a0 80 bd 51 32 a4 3b 34 ed c7 3d ba 09 a0 bd
       -0.06280696 0.005010881 0.0976204 -0.07814355
000070 b9 f9 c8 bd 19 f5 3c bd 84 63 93 3d 33 e5 9e 3b
       -0.09813256 -0.04613218 0.071967155 0.0048491
000080 74 93 05 3e 2d 87 20 be 00 96 81 3d 42 00 07 3e
       0.1304453 -0.15676565 0.06327438 0.13183692
000090 3c 8b e0 3d e9 1d 1b be 0f f7 ed bd e4 18 29 3b
       0.10964057 -0.15148129 -0.11619388 0.002580219
0000a0 98 23 5a 3a 2c 61 d4 3d 50 56 11 3e d7 63 3b bc
       0.0008321344 0.103700966 0.14193082 -0.011437378
0000b0 4a 84 51 bd e1 80 c2 3d eb 0b e7 bd 5c ba a2 bd
       -0.05115155 0.09497238 -0.1128157 -0.079457015
0000c0 d4 78 af 3c cf f2 ef bc 32 cc d7 3d 0c b0 0d bd
       0.02141992 -0.029290585 0.10536994 -0.03459172
0000d0 a0 7c 97 3c fa a3 4a 3d 7c 1a 74 bc 5e 4b 65 bd
       0.018492043 0.049472786 -0.0148988925 -0.05598008
0000e0 55 fd dd 3d be ba c6 3d 91 b5 d9 bc 39 2b e4 bd
       0.10839335 0.09703587 -0.026575835 -0.111410566
0000f0 74 c3 69 bd 15 a4 f6 3d c0 9d d0 3d 3d 82 68 bd
       -0.057071164 0.12043015 0.101863384 -0.05676483
000100 2e da c2 3d 8b 27 a8 bc 8b 0a 27 bc a4 cb a7 bd
       0.09514271 -0.020526668 -0.010195385 -0.08193138
000110 e8 d9 a9 3b 30 02 15 bd 54 18 34 3d d1 8f 29 be
       0.005183447 -0.03637904 0.043968514 -0.16558768
000120 ba 89 2a bc a5 62 0b be 29 a5 25 be ce be 30 be
       -0.010408813 -0.13611849 -0.16176285 -0.17260286
000130 0c 0f e5 bc 52 2b 03 3d 74 10 95 3c bf ce 27 3d
       -0.027961276 0.032023735 0.018196322 0.040968653
000140 4b 1b 99 bd 54 3f ec bd 1f 4a 1a bd 07 cc 05 be
       -0.07475909 -0.115355164 -0.037668344 -0.13066112
000150 53 c5 b1 bc b2 a8 15 3d b6 1f c7 3c d6 12 22 be
       -0.021700537 0.036537834 0.024307113 -0.15827498
000160 b5 53 29 3e 35 89 19 3e 47 13 a0 bd e1 d7 17 be
       0.16535838 0.14993747 -0.07816177 -0.14828445
000170 5e 12 d0 3c e5 ed 20 3d 9c 70 3e bd 6f d4 a3 bd
       0.025399383 0.039289374 -0.04649411 -0.07999503
000180 46 b3 57 3c ab 02 d9 bd c9 e5 ba bd 50 19 64 3d
       0.013165301 -0.10596212 -0.09125859 0.055688202
000190 19 4a a1 3c 23 e5 8f 3d 37 c0 16 3e b9 ce de ba
       0.019688653 0.07026126 0.14721762 -0.0016998864
0001a0 98 a9 72 3d e8 72 fe 3d 2e 1f df bd db 72 ed 3d
       0.05924377 0.124242604 -0.10894619 0.115941726
0001b0 25 64 f4 3d b6 17 88 bd ed 56 0b 3e aa 7b a3 bd
       0.119331636 -0.066451475 0.13607378 -0.079825714
0001c0 3b 21 aa bd 8b 9f ff 3d 56 81 a4 3d af 9b 4d bc
       -0.083071195 0.12481602 0.08032481 -0.012549325
0001d0 e7 c5 0c be 82 66 cb 3d 16 11 2f 3d d6 0e d5 bd
       -0.13747369 0.09931661 0.042740904 -0.1040322
0001e0 af c8 d3 bb 8e c7 00 3e 6d 87 96 3d 40 c3 a3 bd
       -0.0064631323 0.12576124 0.07350049 -0.07996225
0001f0 b7 0e f3 ba 0f e1 7b bd 7d 44 eb 3d be 59 a7 3d
       -0.0018543814 -0.06149393 0.114876725 0.08171414
000200 3f 2b d3 bc 15 52 a7 bc 8c d5 01 be 71 95 1d bd
       -0.025777457 -0.020424882 -0.12679118 -0.038472597
000210 9c c7 ae 3d 05 fe 2a be 6f 26 b6 3c c0 9b 29 3e
       0.08534166 -0.16698463 0.022235123 0.1656332
000220 c8 ca 99 3d 60 15 b1 3d b9 f5 40 bd a8 8a 70 bc
       0.075093806 0.08646655 -0.04710934 -0.014681496
000230 5b 41 18 be 9e 2c ad bd 8d 22 33 3d bb 68 73 3d
       -0.14868681 -0.08455776 0.043734122 0.05942605
000240 83 31 d2 3d f4 c9 c8 bd 8c c3 4c 3d b4 dc c4 bd
       0.1026335 -0.098041445 0.049991176 -0.09612408
000250 65 7e 03 be 77 b7 88 bd 75 73 f2 bd 40 32 07 3d
       -0.12841184 -0.06675618 -0.11838428 0.033006907
000260 ec 0e df 3c 4d 1e e4 3d 3c 17 ba 3d 7a fc 0a 3d
       0.027228795 0.11138592 0.09086463 0.033932187
000270 00 90 89 3d 0f 10 5a 3d cd 80 28 be b1 c1 a4 bd
       0.06716919 0.05323797 -0.16455384 -0.08044756
000280 26 8c 11 be c6 b1 ce bd f2 e0 0e 3d 47 18 28 3e
       -0.14213619 -0.10092501 0.034882493 0.16415511
000290 9a d4 f6 3d ee 30 91 bd b5 c4 25 3d 54 5c f5 3d
       0.12052269 -0.07089411 0.040470798 0.11980501
0002a0 1b 9e 14 3d 3c c7 11 be a2 f7 ae 3c ef 2c 91 3d
       0.036283594 -0.14236158 0.021358315 0.070886485
0002b0 40 38 e9 3c 9e cc 22 3e 29 c0 14 3e 7c 3b c7 bd
       0.028469205 0.15898368 0.14526428 -0.097281426
0002c0 b4 86 07 3e c9 83 1f be 06 5e ca bd 2a 87 90 3d
       0.13234979 -0.15577616 -0.09881215 0.070570305
0002d0 91 54 ac 3b 46 f2 19 3e 92 36 d4 3d 10 e4 17 bd
       0.0052591045 0.15033826 0.10361971 -0.03708273
0002e0 be 77 2a 3e f3 da ff bd 6e e1 04 3d 1a e7 62 3d
       0.1664724 -0.12492933 0.03244155 0.055396177
0002f0 31 55 0b 3e 19 6e 2e 3e 28 d9 ad 3d a4 d2 9e bd
       0.13606717 0.17034186 0.08488685 -0.0775502
000300 77 41 0f 3e 4a 64 f5 3d dd 98 60 bb cd e7 ff 3d
       0.13989817 0.11982019 -0.00342708 0.12495384
000310 96 37 e3 3c c2 0d 7a bc bd e7 5b 3d 94 ae e8 39
       0.027736466 -0.015262069 0.0536878 0.0004438056
000320 4d e0 48 bd d7 8b ce 3c 2b d5 93 ba 8f f7 f4 bd
       -0.049042035 0.025213165 -0.0011278739 -0.119612806
000330 bf 94 02 be 6c 4b 6a 3d 23 d4 8a bd d9 87 8b 3b
       -0.12752055 0.057200834 -0.06778743 0.0042581377
000340 36 6d 1d 3e 91 7c 03 3e cd 19 c6 3d 05 c7 bd 3d
       0.15373692 0.12840487 0.0967289 0.092664756
000350 84 69 f1 3d cc 1b ef bd f2 de 25 3e 2b 74 03 be
       0.11787704 -0.11675224 0.16198328 -0.12837283
000360 06 00 e7 bd 75 0d 92 bd 29 3b 2e 3e 55 b0 c7 3d
       -0.11279301 -0.07131473 0.17014755 0.097504295
000370 e3 b0 47 3d 5f b1 ce 3d d3 34 2a be 80 f6 29 be
       0.048752677 0.100924246 -0.16621713 -0.16597939
000380 38 26 5e 3d 07 eb 42 bd 38 b6 aa 3d 56 04 fd bd
       0.054235667 -0.04758742 0.08335537 -0.12354343
000390 25 d2 28 3e 3e 82 1b be 53 ce b5 3d 83 d6 bb 3d
       0.16486414 -0.15186402 0.08877244 0.09171774
0003a0 6f 39 bf bd e9 91 1d 3e a8 c6 b9 3d c0 c4 a2 bd
       -0.093371265 0.15387692 0.09071094 -0.07947683
0003b0 69 dd a1 bd ce 57 08 3e ce 6b 30 bd dc 68 3b 3c
       -0.07903559 0.13314745 -0.04307156 0.011438575
0003c0 21 75 a3 3d 8c 57 a6 3d 99 85 b2 bd c0 3d 06 3e
       0.07981325 0.08122167 -0.08716888 0.13109493
0003d0 c3 34 58 3d 24 9c 65 3d 48 9c a5 bd e5 0d a1 3d
       0.052784692 0.05605711 -0.08086449 0.07863978
0003e0 66 35 b1 bc bd d8 fc 3d 25 ce b6 3d 47 f1 00 3e
       -0.021631908 0.12346027 0.08926038 0.1259204
0003f0 d5 da c1 bc 19 bd e7 3d 6c 2d 09 3e 4d 77 1e 3d
       -0.023663918 0.113153644 0.13396233 0.038687993

bn1.weight f4 [512]
000000 69 af 7f 3e 94 f5 f6 3e 47 74 68 3c e6 64 0f 3f
       0.24969257 0.48234236 0.014187879 0.56013334
000010 36 eb b8 3e ec 84 20 3e 6b 5a d5 3e 87 43 95 3e
       0.36116952 0.15675706 0.41670546 0.29153082
000020 da dd 32 3e 89 38 54 3f 90 b8 19 3f 42 05 bc 3e
       0.17467442 0.82898766 0.60047245 0.3672276
000030 c0 fc 03 3f a5 ac ba 3e 95 40 89 3e 65 48 b8 3e
       0.5155754 0.36459842 0.26807085 0.35992733
000040 b5 6c 0f 3b a9 2c 5b 3e a2 c6 21 3f cb 33 00 3d
       0.0021884863 0.21403755 0.63193715 0.031299394
000050 c8 c0 97 3e df 05 e5 3e b8 0b dc 3e 0d 4e 5c 3e
       0.29639268 0.44731042 0.4297769 0.21514149
000060 f7 c2 6a 3e 04 ad 65 3e 70 05 42 3e da 20 8a 3e
       0.22925936 0.22429281 0.18947387 0.2697819
000070 9d 3e 7c 3e 33 cb 9b 3e 3a 57 bd 3e 45 e1 b1 3e
       0.2463326 0.30428466 0.3698061 0.3474218
000080 cd dc 05 3d 57 53 62 3f 5c 6b 2c 3f eb c2 72 3e
       0.032681275 0.88408417 0.6735132 0.23707168
000090 5c 93 c6 3e c9 24 d7 3a 0d 4f 36 3e 7d 35 82 3e
       0.387843 0.0016414161 0.17803593 0.25431433
0000a0 7e c0 02 3f bf 47 68 3b 0c 37 b7 3e 0e da dc 3e
       0.5107497 0.0035443155 0.35784185 0.43135113
0000b0 9c 65 ae 3e a6 63 04 3f 72 a9 c6 3e 0a 2a 4d 3f
       0.34061897 0.5171455 0.38801152 0.8014227
0000c0 44 f6 0c bc ca 12 91 3e 96 54 3a 3f 03 03 84 3e
       -0.008603636 0.28334647 0.7278532 0.25783548
0000d0 1a 40 bc ba 50 77 83 3e 1f 42 a1 3e be cd 87 3e
       -0.0014362365 0.25676966 0.3149576 0.26524156
0000e0 02 96 7a 3e 08 55 75 3e 0b af a4 3e 3d 41 90 3e
       0.24471286 0.23958218 0.32164797 0.28174773
0000f0 34 c3 a0 3e 51 59 5e 3e 15 41 a1 3e 85 ab 36 3e
       0.31398928 0.21713759 0.31494966 0.17838867
000100 5d 74 0f 3f 98 d1 a9 3e ea d9 8b 3e 62 5b 07 3f
       0.5603693 0.3316772 0.27314693 0.52873814
000110 78 2c d6 3e 9e 8c 2a 3d 6b f4 41 3e 99 41 09 3f
       0.41830802 0.04163801 0.18940894 0.5361572
000120 f8 33 96 3e ab 04 51 bb bf 25 a2 3e d7 fb 76 3e
       0.29336524 -0.0031893651 0.31669423 0.24119507
000130 a9 d6 97 3e d4 5d 0d 3f ea 9c de 3e f1 45 06 3f
       0.2965596 0.55221295 0.4347909 0.5245047
000140 55 bc 96 3e 82 83 b6 3e 5b 12 91 3e 01 98 5e 3c
       0.2944056 0.35647207 0.28334317 0.013586045
000150 d8 57 70 3e da e0 ce 3e 65 02 dc 3e 70 31 f5 3e
       0.2347101 0.40405923 0.42970577 0.4788928
000160 05 f6 ae 3e 85 09 e1 3e ac a5 f5 3e b8 eb 8c 3e
       0.34172073 0.43952575 0.4797796 0.2752359
000170 0e db a0 3e 8a c7 bd 3e 47 40 f3 3e 19 28 c9 3e
       0.31417125 0.370663 0.47509977 0.39288405
000180 66 a7 ba 3e c2 e8 15 3f ac 3a a2 3e b3 3d 93 3a
       0.3645584 0.58558285 0.31685388 0.0011233598
000190 3d 70 2f 3e ff 15 bd 3e 63 f1 f4 3e b1 56 9b 3e
       0.1713266 0.36930844 0.47840413 0.30339578
0001a0 e3 65 5a bc 45 d9 fa 3e 5b 38 02 3f 6a 59 d0 3e
       -0.013329956 0.48993888 0.5086724 0.40693218
0001b0 6f 20 df 3e 06 5a f9 3e 63 0c cf 3e 66 03 a5 3e
       0.43579432 0.48701495 0.40439138 0.32229155
0001c0 df cc e8 bb 88 6e 42 3e f0 c5 89 3f 53 59 8d 3e
       -0.0071045007 0.18987477 1.0763531 0.2760721
0001d0 56 08 21 3f da c5 8d 3e 0f fc 76 b9 68 7a d2 3e
       0.62903345 0.2769001 -0.00023554287 0.41109014
0001e0 0c ba 9f 3e 0f ec 04 3e 49 11 00 3f 3b 8e 8c 3f
       0.3119663 0.12980674 0.50026375 1.0980905
0001f0 50 28 da 3e cb 6e 05 3f ba 90 9a 3e 8f f6 cb 3e
       0.4260888 0.5212218 0.30188543 0.39836547
000200 85 71 ac b9 a4 40 1c 3f 5b a5 b1 3e 78 00 0f 3f
       -0.00032890975 0.61036134 0.3469647 0.5586009
000210 3f 0d 90 3e e6 67 22 3f 03 bf 5a 3e 37 4b d1 3e
       0.28135106 0.63439786 0.21361928 0.40877697
000220 c9 19 2b 3f 55 49 8a 3e a5 98 41 3e fc ad 81 3c
       0.6683622 0.27009073 0.18905886 0.015830033
000230 64 8f f7 3e 1a e6 e5 3e b2 dc 89 3e 40 6a e5 3e
       0.48351586 0.44902116 0.2692619 0.44807625
000240 93 d1 78 3e 6f d6 cb 3e 67 68 ba 3b 45 0d 48 3e
       0.24298696 0.39812037 0.0056887153 0.19536312
000250 4c 38 1d 3f ab ec d3 3e 87 d1 ef 3e 58 f3 f5 3e
       0.6141403 0.413915 0.46839544 0.4803722
000260 76 84 0c 3f 96 e6 7b 3f 95 ba c3 3e f0 dd b0 3e
       0.5488962 0.9839872 0.38228288 0.34544325
000270 5f 32 3a bc af 33 cf 3e d0 42 c4 3e a9 8d d1 3e
       -0.0113645485 0.4046912 0.38332224 0.4092839
000280 b8 e6 01 3f 0a 81 04 3f e6 25 04 3f f5 d4 52 3e
       0.50742674 0.517594 0.5162033 0.20589049
000290 e5 23 f9 3e 2f f8 05 3f a7 1d a8 3e 8a 7a a0 3e
       0.48660198 0.52331823 0.32835123 0.3134349
0002a0 d0 f1 74 3e ee d8 5a 3b 9a 71 8b 3e fb b9 64 3e
       0.23920369 0.003339346 0.2723511 0.22336571
0002b0 c3 e6 cb 3e 11 46 d9 3e 1e 15 e4 3e 3c 44 4a 3e
       0.39824495 0.4243627 0.4454736 0.19752592
0002c0 c3 94 15 bb 37 3a ef 3e 97 39 9b 3e e7 ee 8c 3e
       -0.0022824265 0.46724102 0.30317375 0.27526018
0002d0 b7 21 cb 3e ba 6c 58 3f b0 5d aa 3e df b2 df 3e
       0.3967416 0.84540904 0.33274603 0.43691155
0002e0 2a d0 bb 3e e6 c3 2b 3c bc e4 57 3e 08 f5 c9 3e
       0.36682254 0.010483718 0.21083349 0.39444757
0002f0 38 e6 8c 3e ba e9 7f 3e ba 77 92 bc 69 bc c1 3e
       0.27519393 0.24991503 -0.017879356 0.37839058
000300 f7 2e fd 3e c2 d1 87 3e 34 8e 8f 3e 04 ec ee 3e
       0.49449894 0.2652722 0.2803818 0.4666444
000310 70 e3 3f 3e f2 33 b3 3e 58 bb 48 3f 2e 25 63 3e
       0.18739104 0.3500057 0.78410864 0.22182152
000320 73 c1 be 3e d8 5d 01 3f 0f 46 ea 3e cb e2 61 3e
       0.37256965 0.5053382 0.45756575 0.22059171
000330 48 04 b7 3e 88 ae 8f 37 2d ab bd 3e 0f 22 86 3e
       0.35745454 1.71282e-05 0.3704466 0.2619786
000340 86 09 49 3e f3 c6 e3 3e 67 8f 8e 3e d2 e9 ac 3e
       0.19632539 0.44487724 0.27843782 0.3377214
000350 6f 06 b6 3e 92 c6 01 3f 7a 58 b5 3e 30 70 4c 3e
       0.35551783 0.5069362 0.35419065 0.19964671
000360 b9 4a b3 3e 17 ab 67 3e 0d 7a 9c 3e ed 29 cb 3e
       0.35017946 0.2262386 0.30561867 0.39680424
000370 88 9f c4 3e cd 70 91 3d 37 f5 ed 3e f7 ae 36 3e
       0.38402963 0.07101593 0.46476147 0.17840181
000380 ff 02 53 3c 6b 37 78 3e 31 c9 10 3f a1 8e 40 3e
       0.012879132 0.2423989 0.56556994 0.18804409
000390 9a b3 01 3f cb 66 d9 3e c3 8f 8a 3e c7 8c f0 3e
       0.50664675 0.42461237 0.27062806 0.46982405
0003a0 6f c8 24 3f 29 58 29 3e dd ca 94 3e e9 76 a8 3c
       0.6436834 0.16537537 0.29061022 0.020564513
0003b0 f3 73 1b 3f 44 77 ed 3e 3d 89 1e 3f 1f c4 fc 3e
       0.607238 0.46380055 0.6192816 0.4936838
0003c0 90 d4 1f 3f d6 f8 ab 39 aa e4 2d 3e e2 14 d6 3e
       0.6243372 0.0003280106 0.1698176 0.41812807
0003d0 22 ff 1b 3e e3 7d 96 3e ed 7e 93 3e 4b 31 be 3e
       0.15234044 0.2939292 0.28807774 0.37146983
0003e0 0b fd 45 3e 6c a6 aa 3e ec c2 44 3e ef 5f c4 3e
       0.1933481 0.33330095 0.19214982 0.38354442
0003f0 78 cc cd 3e 2a 26 c0 3e 43 7c ac 3e 1e 7e 0e 3f
       0.4019506 0.37529117 0.33688554 0.5566119

bn1.bias f4 [512]
000000 f0 4d fa be bd 8d 51 bf d2 ac 55 be 8f e1 ef be
       -0.48887587 -0.818569 -0.20866707 -0.46851775
000010 1a e6 27 bf e6 6e db be 0e 50 09 bf ed 47 ef be
       -0.6558548 -0.42858046 -0.5363778 -0.46734563
000020 de 42 04 bf fd 7b 07 bf e8 44 1e be 3d 72 a3 be
       -0.5166453 -0.52923566 -0.15455973 -0.31923094
000030 43 43 55 bf d9 67 b3 be 65 b9 bd be 73 29 1f 3f
       -0.8330576 -0.35040167 -0.37055507 0.6217262
000040 e1 55 eb bc a8 fd bf be 30 c8 78 be 98 9e 02 be
       -0.028727474 -0.37498212 -0.24295115 -0.12755811
000050 58 0c e0 be 14 89 a9 be 56 a7 c9 be 7d 35 17 be
       -0.43759418 -0.33112395 -0.3938548 -0.14766498
000060 ab 38 d3 be e6 1a c3 be 26 df e8 be 24 9c 39 be
       -0.41254172 -0.3810646 -0.4548275 -0.18125969
000070 a7 56 87 be 69 08 12 bf 77 b4 f4 be 10 2e 07 bf
       -0.26433298 -0.5704408 -0.47793934 -0.5280466
000080 36 28 58 be 4a a7 10 bf e9 e7 0f bf d4 72 ca be
       -0.2110909 -0.5650526 -0.5621324 -0.39540732
000090 a9 1a 19 bf 96 78 0b bc c5 eb ff be 42 b7 c8 be
       -0.59806305 -0.008512637 -0.49984565 -0.39202315
0000a0 07 ae 96 be c9 c7 18 be 08 b2 1d 3d 73 31 c9 be
       -0.29429647 -0.14919962 0.038499862 -0.3929554
0000b0 d6 5c 11 bf 87 10 4a be e4 16 0c bf 8d fb 4a be
       -0.5678228 -0.19732867 -0.5472243 -0.19822522
0000c0 6f ab 31 be 91 c9 43 be 0f 1d 2a bf cb 7d 27 bf
       -0.17350553 -0.1911986 -0.6645059 -0.6542632
0000d0 e5 ed 8b bc f0 6b e4 be 39 d9 46 be 87 f4 fc be
       -0.01708121 -0.446136 -0.19418801 -0.4940531
0000e0 08 73 85 be 28 df 01 bf ca 21 aa be 9e 74 d8 be
       -0.26064324 -0.50731134 -0.33228904 -0.42276472
0000f0 99 83 fc be 59 56 a9 be af 05 a8 be 81 b6 01 bf
       -0.4931915 -0.3307369 -0.32816836 -0.50669104
000100 cc ea b0 bd 5b f2 77 be 70 4c 88 be 80 10 22 bf
       -0.08638534 -0.24213545 -0.26620817 -0.63306427
000110 5e cc 31 bf 2b 20 5f be fc 70 b6 be af 37 ca be
       -0.69452465 -0.21789615 -0.35633075 -0.39495608
000120 95 2d a4 be 43 36 7b bd 55 2b e5 be 6c 6f ab be
       -0.32066026 -0.061331045 -0.44759622 -0.33483446
000130 44 fd 17 bf cc 57 69 bf 57 ad 0d bf 2e 7f 84 be
       -0.5937083 -0.9114959 -0.5534262 -0.2587828
000140 cc 76 00 bf 7b 38 33 bf a2 bb 95 be e1 b6 c6 bd
       -0.5018127 -0.7000806 -0.29244715 -0.0970285
000150 e7 b3 b9 be b1 69 50 be ee f1 46 be 04 00 bd be
       -0.36270067 -0.20352818 -0.19428226 -0.36914074
000160 12 cb ec be b2 00 13 bf c9 6f d2 3e cb ba 84 be
       -0.4624868 -0.57422936 0.4110091 -0.25923762
000170 0d 7a 77 be a3 18 eb be 14 be 96 be f2 aa 09 bf
       -0.24167652 -0.45917234 -0.29441893 -0.53776467
000180 d1 0b 9d be 24 29 0f bf fb 93 24 bf 22 5e 29 bc
       -0.30673078 -0.5592215 -0.642883 -0.010337384
000190 63 65 fe be 83 65 88 be 3d e0 07 bf 61 16 be be
       -0.49686727 -0.26639947 -0.53076535 -0.3712645
0001a0 1b b5 6e bd 51 9e 97 be 5e a1 35 bf e5 d5 6d be
       -0.058278184 -0.29612973 -0.7094935 -0.23226126
0001b0 ed 45 1a bf 0b 67 40 bf 7b 4c 10 bf 7d b7 07 be
       -0.6026295 -0.7515723 -0.563667 -0.13253589
0001c0 65 71 88 bd 3c 91 95 be 7a 18 fc bc 17 2d be be
       -0.06662253 -0.29212368 -0.03077339 -0.37143776
0001d0 82 04 67 bf d1 2c 13 bf 50 dc 69 bd 0b 02 05 bf
       -0.90241253 -0.5749026 -0.057094872 -0.5195624
0001e0 85 49 9e bc 9e 18 da be 55 f4 c7 be ff 67 90 3d
       -0.019322166 -0.42596906 -0.39053598 0.07051086
0001f0 64 76 e4 be a7 5c ec be 9e ad 04 bf b0 4d b8 be
       -0.44621575 -0.46164438 -0.5182742 -0.3599677
000200 d6 ee 18 bc a0 4c 88 be 41 4b aa be ad 07 c5 be
       -0.009334287 -0.2662096 -0.3326054 -0.3848242
000210 bd ef c8 be 42 55 0b bf 39 37 0a bf bf fa e9 be
       -0.39245406 -0.5442697 -0.53990513 -0.45699117
000220 cb b3 32 bf 9c 0d 0e bf 9b 64 f5 be 66 fe 60 bd
       -0.6980559 -0.55489516 -0.47928318 -0.054930113
000230 cc b5 7b be e0 9d 03 bf 86 19 ff be 88 f0 0b bf
       -0.24581069 -0.51412773 -0.4982416 -0.54663897
000240 fa ab b6 be d2 9a 21 bf f6 82 91 bd 58 70 f0 be
       -0.35678083 -0.6312686 -0.07105057 -0.4696071
000250 7d c7 06 bf ec 79 ef be 3e 18 de be 7e 7c 21 bf
       -0.52648145 -0.46772707 -0.4337787 -0.63080585
000260 f3 83 5e bf 5e c3 d2 bd 86 eb b6 be ab 34 e5 be
       -0.8692009 -0.102911696 -0.35726565 -0.44766745
000270 56 69 17 be 46 43 21 bf 51 2f b2 bd 25 98 04 bf
       -0.14786276 -0.62993276 -0.08700431 -0.51794654
000280 a6 e6 1c 3f 64 70 10 bf 88 e4 07 bf 7b bb dc be
       0.6128944 -0.56421494 -0.53083086 -0.43111786
000290 9c 9f ed be a7 17 24 bf e0 a5 dc be bd b0 d5 be
       -0.46410835 -0.6409859 -0.43095303 -0.41736403
0002a0 ec 99 09 bf a6 0b f1 bd 75 79 e8 be 60 7c bf be
       -0.5375049 -0.117698 -0.45405164 -0.37399578
0002b0 da f2 83 be 43 bf 14 bf 13 80 4c be 5c 1d c1 be
       -0.2577122 -0.5810434 -0.19970731 -0.37717712
0002c0 1b ec c0 bc 1f b0 15 bf 38 82 d0 be 2f e0 03 bf
       -0.023550084 -0.58471864 -0.4072435 -0.5151395
0002d0 c7 9b 34 bf be 2b ff be 97 6d 19 bf 22 4b ee be
       -0.705502 -0.4983806 -0.59932846 -0.46541697
0002e0 bb 91 d5 be ab 87 5d bd d4 96 6e be b3 fe bd 3e
       -0.41712746 -0.05408446 -0.23299724 0.37108383
0002f0 34 b6 c8 be aa 05 02 bf 9e de ab bd 91 b3 0c bf
       -0.3920151 -0.5078989 -0.0839207 -0.54961497
000300 64 90 9d be 48 fc 79 be 93 c6 c5 be 89 dc 2e bf
       -0.30774224 -0.24412644 -0.38628063 -0.6830526
000310 e9 5e ac be f4 58 a4 be 8c d6 53 bf 82 d3 37 bf
       -0.3366616 -0.32099116 -0.8274925 -0.7180711
000320 85 5f 26 bf a5 b1 62 be 1b ee 81 be a7 ba bd be
       -0.649895 -0.22138079 -0.25376973 -0.37056467
000330 08 a4 87 be 78 ef b3 bc 18 de fe be 87 4e 19 bf
       -0.26492333 -0.021964774 -0.4977882 -0.5988545
000340 95 9b c6 be 31 ee ec be 0a 91 d5 be 31 b5 a7 be
       -0.38790575 -0.46275476 -0.4171222 -0.32755426
000350 17 a2 d6 bd 2b b1 f7 be bb 75 37 bf 5d 32 bf be
       -0.10480135 -0.48377356 -0.7166402 -0.37343112
000360 7e 91 e0 be af 66 69 be 70 ec 23 bf bd dc 4d bf
       -0.43861002 -0.22793077 -0.6403265 -0.80414945
000370 7f 56 1b bf f0 18 9f be 68 0c e3 be 07 64 06 bf
       -0.6067886 -0.31073713 -0.44345403 -0.5249638
000380 ae 49 cb bd 76 82 f1 be 74 c4 e0 be 84 f1 c5 be
       -0.09926163 -0.47169846 -0.43899882 -0.38660824
000390 47 a8 84 be ac 79 12 bf b2 f0 3b bf 77 ff fb be
       -0.25909635 -0.57216907 -0.73414147 -0.49218342
0003a0 6c 67 b6 be 73 46 ed bd d2 01 1a bf 1c a7 2e be
       -0.3562578 -0.11585703 -0.6015903 -0.17055935
0003b0 2c ee 2d bf d1 42 25 bf a8 b4 21 bf ae bd 2b bf
       -0.67941546 -0.6455508 -0.63166285 -0.67086303
0003c0 18 7d a0 be ce e0 59 bd 4c 89 b1 be cf 10 39 be
       -0.3134544 -0.053192906 -0.34675062 -0.18072818
0003d0 f6 68 99 be 3c 5b 0a bf 96 c6 f6 bc 81 de 23 bf
       -0.2996289 -0.5404546 -0.03012399 -0.6401139
0003e0 26 6f d0 be 95 b4 bd be dc 7c ac be 7d c0 d1 be
       -0.407098 -0.37051836 -0.3368901 -0.4096717
0003f0 31 9c b5 3d 43 9a a6 be 96 ff 77 be 7d 11 9a be
       0.08867682 -0.32539567 -0.24218592 -0.30091467

bn1.running_mean f4 [512]
000000 8e 20 3d bf f9 7f 97 be 1f a2 3d bf c2 48 2f 40
       -0.738778 -0.29589823 -0.740755 2.7388158
000010 f5 55 80 3f 02 4a d6 bf 61 4d bf 3e 35 14 37 bf
       1.0026232 -1.6741335 0.37363723 -0.7151521
000020 bb e4 1e bf 2b f7 39 be 30 6a 01 3f 56 c3 26 3f
       -0.62067765 -0.18160693 0.50552654 0.6514181
000030 4c e9 8e bf e9 f1 85 bf a0 dd 71 3d 12 a7 a3 3f
       -1.1164947 -1.046445 0.05904925 1.2785361
000040 ef a5 56 bc 2f d1 c6 bf a4 0c fd 3e ef 70 a8 3e
       -0.013101085 -1.5532588 0.49423707 0.32898661
000050 3b 6f 17 c0 a8 ba 6a 40 d1 bd 5a 3f 75 28 81 bf
       -2.366164 3.6676426 0.85445887 -1.0090472
000060 2a 7e 00 bf 49 8a 2c 3f e5 42 68 bd 82 0f 39 3d
       -0.5019251 0.67398506 -0.05670442 0.045180805
000070 c2 2e 17 3f 7b 14 f4 3f 20 4e 18 3e 1e 5b ba bf
       0.5905572 1.906875 0.14873552 -1.4559057
000080 f3 d4 18 3c 59 3e 83 be 02 eb 68 3f cb 2c ad bf
       0.009328115 -0.25633505 0.90983593 -1.3529295
000090 45 83 83 bf f5 7c 07 3d fe 72 18 3f fc ea e5 be
       -1.0274435 0.033078153 0.59550464 -0.4490584
0000a0 05 c6 44 3f ec 96 a8 be 24 f2 13 40 3e 0f 77 3f
       0.76864654 -0.32927644 2.311654 0.9650763
0000b0 09 dd 43 bf b7 45 ae 3c 25 98 66 bf 21 5e 14 3f
       -0.7650915 0.021273477 -0.90075904 0.5795613
0000c0 1b 1d 27 bf 9b 07 4c 3f 7b 86 00 3d fa 0d 18 c0
       -0.65278786 0.79699105 0.03137825 -2.375853
0000d0 61 61 7a 3e 0f d9 be bf 3a 39 01 c0 dd fa c9 bf
       0.2445121 -1.4909991 -2.0191178 -1.5779682
0000e0 34 30 ff 3f 90 60 d8 3a f6 2e 7c 3e 08 e4 79 bf
       1.9936585 0.001650827 0.24627289 -0.97613573
0000f0 32 23 88 bf 58 73 d4 3f 95 a0 8a 3f 54 bf 69 bf
       -1.0635741 1.65977 1.0830256 -0.9130757
000100 5d 4b 34 3f 5c 4e 8e 3f 3e 69 bf 3f 25 f7 17 c0
       0.70427495 1.1117663 1.4953992 -2.3744595
000110 8f 7e 38 c0 12 86 8d 3e 7b 47 83 bf 93 21 e6 be
       -2.8827245 0.2764135 -1.0256189 -0.4494749
000120 38 df 27 40 b8 b5 a6 be 65 95 96 be 17 88 31 3e
       2.6229992 -0.32560515 -0.29410854 0.1733707
000130 2c 72 76 bf 9c 69 1e c0 73 db 66 40 91 4e 19 be
       -0.9626796 -2.475196 3.607144 -0.14971377
000140 b9 55 76 bf 41 35 b1 bf 79 92 6e 3f 12 83 83 3e
       -0.9622455 -1.3844377 0.9319225 0.25685936
000150 9e 27 a3 bf 83 05 e0 3f fd 02 8f 3f 3a f6 5b be
       -1.2746465 1.7501682 1.1172787 -0.21480647
000160 1b 21 3a 40 51 22 78 bf d0 17 a7 3e 51 80 b6 3e
       2.9082706 -0.9692736 0.32635355 0.35644773
000170 a6 79 d3 3f d2 82 f6 3f 66 f4 12 3f 75 15 92 bf
       1.6521499 1.9258673 0.5740417 -1.1412798
000180 7e 82 bc 3e 5d c4 42 3f 2b 80 fc be 89 06 0c 3e
       0.36818308 0.76080877 -0.49316534 0.13674368
000190 b1 82 16 bf 3f 24 ce 3d 6f c7 ac 3d 43 89 44 bf
       -0.5879317 0.10065507 0.084364764 -0.76771945
0001a0 e7 9a c7 bd d8 69 96 3f 68 4c 17 bf 48 7e 10 3f
       -0.09746342 1.1751051 -0.5910096 0.5644269
0001b0 b9 b0 fc 3c 1c a6 2f c0 06 d8 c2 3f 40 eb f3 3f
       0.030845987 -2.7445135 1.5222175 1.9056168
0001c0 35 97 72 bd 7a 94 b0 bf 3b b6 49 be fb ad 90 3f
       -0.059226234 -1.3795311 -0.19698422 1.1303095
0001d0 23 f0 11 bf 64 97 79 bf 3e 4e 84 bb ff 6e 42 40
       -0.57007045 -0.9749663 -0.0040376475 3.0380247
0001e0 3e 93 3e 3f 62 45 7b bf 9d 64 d4 bf bb 23 94 3e
       0.74443424 -0.98152745 -1.6593205 0.2893351
0001f0 50 56 bf 3f a5 84 25 bd 00 5c 1c bf 75 c9 aa 3f
       1.4948215 -0.040409703 -0.6107788 1.334273
000200 e9 80 0f 3e 5d 29 d2 bf c7 9e 69 3e 37 49 fd 3c
       0.14014019 -1.6418873 0.22814475 0.0309187
000210 85 9e 76 bf e1 e1 91 be 1b 57 24 3e bc d2 3e bf
       -0.9633563 -0.28492644 0.16048853 -0.74540305
000220 55 65 2f bf de 87 90 bf 8a 90 e0 bf 2d 4c 49 be
       -0.68513995 -1.1291463 -1.754411 -0.19657965
000230 e2 f0 0d 3f 04 d8 2b c0 69 32 38 3f fd 6c 39 40
       0.55445683 -2.6850595 0.7195192 2.897277
000240 a9 c5 8b be 8d 77 70 bd 89 99 4b bd 4f 02 d8 bf
       -0.2729924 -0.058707763 -0.04970697 -1.6875705
000250 8d 3d 14 3f 3f df 00 3e ab 4d b6 bf 9e c4 ae be
       0.5790642 0.12585162 -1.4242452 -0.34134382
000260 71 b9 a8 bf 0c 49 28 be da ca 05 40 57 e0 4d bf
       -1.3181592 -0.16434115 2.090506 -0.8042044
000270 ef 05 26 bc 82 a0 4a bf f3 0a 04 3e db 33 5b bf
       -0.010133251 -0.79151165 0.12894802 -0.85626
000280 2b c4 b8 3e 47 d4 60 bf 4a 83 8b 3f fb 72 99 3e
       0.36087164 -0.8782391 1.0899441 0.29970536
000290 2a bf 9a bd c8 cd 7f bf 53 23 b4 bf 61 61 83 3f
       -0.07555993 -0.9992337 -1.407328 1.0264093
0002a0 78 ec 0f 40 82 cb f8 3e 96 f9 9f be c0 3f 05 40
       2.248808 0.48592764 -0.31245106 2.082016
0002b0 35 65 27 ba fc b8 dd be a1 29 f8 3e 54 73 45 3f
       -0.00063856255 -0.43305194 0.4846926 0.771291
0002c0 75 0e 83 3e 80 4b 86 3f d0 36 c5 3f 01 08 03 3f
       0.25596967 1.0491791 1.5407352 0.5118409
0002d0 cf c9 62 be 5e 7b 0b 3f f6 a7 2e c0 8d b9 32 be
       -0.22147296 0.5448512 -2.7290015 -0.17453595
0002e0 3c 1d 07 bf 3a f4 f4 bc 4d fe 28 3f 4a 38 6e 40
       -0.52778983 -0.029901613 0.6601303 3.7221856
0002f0 f5 a1 53 40 5d 33 ed 3f de bc 9c 3e ea c5 4f bf
       3.30676 1.85313 0.30612844 -0.8116137
000300 1d 08 27 3f c4 a8 1c be 9e aa e7 be b9 0b 05 bf
       0.65246755 -0.15298754 -0.45247358 -0.5197101
000310 ab c5 a1 3f ea 36 28 40 b2 36 cc bd d4 d7 94 3d
       1.2638448 2.6283517 -0.0997137 0.072677284
000320 36 ac 85 bf f4 58 41 c0 7a 77 ad 3f dc 03 01 c0
       -1.044318 -3.0210543 1.3552086 -2.0158606
000330 51 e1 87 3f 42 5f d0 3e 91 b8 c9 bf dd 65 5c bd
       1.0615636 0.40697676 -1.575945 -0.053808082
000340 b3 a2 27 c0 80 67 ae bf 1d fd c7 bd 63 e2 2d 3e
       -2.6193054 -1.3625336 -0.097650744 0.16980891
000350 8f 31 0d 40 b8 d7 a4 bf 5d c0 76 bf 50 fd 7a be
       2.2061498 -1.2878332 -0.96387273 -0.24510694
000360 11 28 a0 bf 4a 60 4e c0 cd e7 65 3e ef 44 6a c0
       -1.2512227 -3.224627 0.22451706 -3.6604574
000370 ea d3 90 bf 79 e1 8a 3f 8f 51 9e be 45 c9 d9 be
       -1.1314671 1.0850059 -0.309216 -0.4253637
000380 02 a3 60 3e db 4c 93 bf 9c 7e c6 3e 42 5a 05 3f
       0.21937183 -1.150783 0.3876847 0.5209085
000390 46 42 de 3f 59 5d ce bf 5b 48 d3 bf 6d c8 5f be
       1.7363975 -1.6122237 -1.6506456 -0.218538
0003a0 c1 31 e8 be b9 99 21 c0 ff 94 31 be a8 5c c3 be
       -0.4535046 -2.5250075 -0.17341994 -0.3815663
0003b0 f7 bf d1 be b6 ad 3c c0 61 7b 4c bf 4f 79 97 3f
       -0.4096677 -2.9481025 -0.7987576 1.1833895
0003c0 65 56 5b 3f f9 a3 0e 3e 1d d4 81 3e ca 48 35 be
       0.856787 0.13929738 0.25357142 -0.17703548
0003d0 8f 16 e8 3e 0f 51 4c bb cb 85 7d 40 27 da 24 40
       0.4532971 -0.0031176244 3.961291 2.575815
0003e0 22 fe d9 bf 6e e9 d5 3f 6a 8c 0a bf 02 b3 21 3f
       -1.703068 1.6711862 -0.54120505 0.6316377
0003f0 a5 f2 e1 3e f1 84 7a 3f 30 01 c5 be d0 7f 1d be
       0.44130436 0.978591 -0.38477468 -0.15380788

bn1.running_var f4 [512]
000000 46 5a 02 41 98 c8 8f 3f e0 94 3a 3f ee 48 1e 41
       8.147039 1.1233091 0.72883415 9.892805
000010 bb 4b 33 41 80 07 8a 40 b5 03 86 40 71 6d e3 40
       11.205989 4.3134155 4.1879525 7.1071095
000020 2e e4 82 40 26 ac 65 40 04 20 b5 40 46 a1 c3 40
       4.090354 3.588632 5.660158 6.1134367
000030 db 34 85 3f 67 52 af 40 e8 2a 09 41 24 c2 80 3f
       1.0406755 5.478809 8.572975 1.0059247
000040 3e e7 53 3d 44 a8 a6 40 fb 6f a8 40 5c b6 1a 3f
       0.0517342 5.20804 5.2636695 0.6043451
000050 38 c7 cd 40 e3 e0 3c 41 58 23 d8 40 d6 e3 16 41
       6.4305687 11.804904 6.7543144 9.430624
000060 60 7d 31 41 fc f4 e1 40 62 15 99 40 bd dd a1 40
       11.093109 7.0611553 4.78386 5.0583177
000070 52 28 a6 40 f5 eb dc 40 3d 41 9c 40 fb 5e ed 40
       5.192422 6.9038033 4.8829637 7.4178443
000080 cf 2b 95 3f 7d 17 c9 3f f6 41 c7 40 dd 7a d8 40
       1.1653994 1.5710293 6.226802 6.764998
000090 7f d7 35 40 e1 ea 3c 3e 0a ad d7 40 37 b6 08 41
       2.8412778 0.18448974 6.739873 8.544486
0000a0 88 a8 d7 40 cd 00 e8 3f 14 8f 82 40 85 86 e7 40
       6.7393227 1.8125244 4.0799656 7.235171
0000b0 be 5d 5c 40 13 df 0b 40 97 a5 35 40 62 b0 ef 40
       3.4432216 2.1854904 2.8382318 7.490281
0000c0 10 e9 d0 3f c3 28 f2 40 fd cc 3d 40 71 c2 88 40
       1.6321125 7.567476 2.9656365 4.2737355
0000d0 28 e8 2c 3e c8 a4 6b 40 f3 ef 06 41 cd f3 a5 40
       0.16885436 3.6819324 8.433581 5.186011
0000e0 a5 d6 bd 40 0e f3 e9 40 4a 52 75 40 3a af b8 40
       5.9324517 7.31092 3.8331475 5.77139
0000f0 59 ae 16 41 48 83 de 3f d9 a4 46 41 50 c3 30 40
       9.417565 1.7383814 12.415246 2.761921
000100 65 98 a9 3f 39 b4 17 41 c0 e6 40 40 b3 83 8d 40
       1.3249632 9.4815 3.0140839 4.4223266
000110 58 30 be 40 92 d9 20 40 77 12 d3 40 97 f4 76 40
       5.9434013 2.5132794 6.596004 3.8586786
000120 5c 2b f0 40 5f 14 a1 3e 6d 2d 84 40 85 71 7d 40
       7.505293 0.31460854 4.130545 3.9600537
000130 c0 9b ad 40 76 c0 b8 3f 05 bb 9e 40 28 6d 8f 40
       5.4252625 1.4433734 4.9603295 4.4820747
000140 73 26 85 40 07 31 23 40 f8 9a d6 40 98 3e 75 3e
       4.1609435 2.5498674 6.706417 0.23949659
000150 4e 06 af 40 04 60 3c 40 3d 66 f6 40 9a f1 41 3f
       5.4695196 2.9433603 7.6999803 0.7575928
000160 4c 22 e7 40 d5 ae bd 40 f7 fe 80 3f 5b ca 6a 40
       7.2229366 5.927592 1.0077809 3.6686008
000170 80 14 9a 40 02 60 86 40 2c 3f a9 40 c4 75 b0 40
       4.8150024 4.1992197 5.2889614 5.5143757
000180 e9 69 e3 40 a4 de fc 40 51 b3 b9 3f b4 4d 8b 3d
       7.1066785 7.902178 1.4507848 0.0680193
000190 89 05 08 41 91 c5 00 41 52 f6 2d 41 07 30 a6 40
       8.501351 8.048234 10.872637 5.1933627
0001a0 ad b4 87 3e e4 e0 e7 40 01 5d 7f 40 2c b3 d6 40
       0.26505032 7.2462025 3.9900515 6.7093716
0001b0 1b 7d 12 41 72 14 9d 40 cb 96 80 40 c0 ff 02 41
       9.155543 4.908746 4.0184073 8.187439
0001c0 36 70 02 3f ae dd 27 41 f3 df a2 3f 36 51 46 40
       0.5095247 10.491621 1.2724594 3.0987067
0001d0 19 a8 01 40 a4 ae 6b 40 4b 69 ea 3e 98 46 8d 40
       2.0258849 3.6825342 0.45783457 4.4148674
0001e0 3a c6 55 40 bf 09 bf 40 a3 f7 d8 40 1c c2 b4 3f
       3.3402238 5.9699397 6.780229 1.4121737
0001f0 38 90 06 41 8f fe 34 41 5f da 07 41 76 a9 3f 40
       8.41021 11.312148 8.490813 2.994718
000200 90 8f d1 3f a6 c1 c9 40 a6 92 10 41 6d f5 96 40
       1.6371937 6.3048887 9.035803 4.717459
000210 5b f2 41 40 3e a8 a1 40 18 fd e3 3f 77 36 93 40
       3.0304172 5.0517874 1.7811613 4.6003985
000220 fd 4e 1b 3f e1 80 55 40 5c fd c9 40 84 69 d0 3f
       0.606674 3.3359911 6.3121777 1.6282201
000230 36 22 55 40 4d 1b 2e 40 57 16 7e 40 e7 7e 72 40
       3.330213 2.7204163 3.9701135 3.7889955
000240 44 2a 3e 40 c9 96 99 40 7a 3a 8a 3e 83 19 ef 40
       2.9713297 4.7996564 0.2699774 7.471864
000250 2c 7e 23 41 8a c5 58 40 27 63 05 41 45 5a 6e 41
       10.218304 3.3870568 8.336707 14.897038
000260 93 ce 26 40 ae ae da 3f 48 b8 b4 40 bc e2 d3 40
       2.6063583 1.7084558 5.6474953 6.6214275
000270 e2 dd be 3f 38 bd cb 3f 08 13 c8 40 6b 15 97 40
       1.4911463 1.591712 6.252323 4.7213645
000280 e4 c9 cf 3f eb e4 8c 40 09 8c 6b 41 31 46 39 41
       1.6233487 4.402944 14.721688 11.579637
000290 b2 15 ec 40 62 55 f9 40 8d aa 31 40 86 6c e7 40
       7.3776484 7.7916727 2.7760346 7.2319975
0002a0 d2 43 bc 40 6d cf e2 3f 82 c5 8e 40 08 36 9f 40
       5.883279 1.7719551 4.46161 4.9753456
0002b0 ab cb b3 3f c6 33 c3 40 49 10 b3 41 cb 78 33 41
       1.404653 6.10007 22.382952 11.21699
0002c0 58 7c b4 3d 6c ab ab 40 5e 65 7c 40 5c 25 8d 40
       0.08812779 5.3646755 3.943687 4.4108105
0002d0 a9 66 ae 40 b4 7f a7 40 7a d7 49 40 87 25 27 41
       5.4500318 5.2343388 3.1537766 10.446662
0002e0 6c 4e 52 3f c9 03 40 3f 19 a8 84 40 6f c7 2c 40
       0.8215091 0.75005776 4.1455197 2.6996725
0002f0 ec a5 b1 40 86 1d 84 40 fc 0f 9c 3f 09 9f 98 40
       5.551504 4.128604 1.2192378 4.7694135
000300 05 5b 77 40 11 99 91 40 59 09 f3 40 10 1f de 40
       3.8649304 4.549935 7.594891 6.941292
000310 f9 0d 0c 41 29 40 2c 40 33 0c 07 40 c0 b4 ef 3f
       8.753411 2.691416 2.1101196 1.8727036
000320 e7 5c 15 41 9f 88 03 41 6f d2 b8 40 92 2e e8 40
       9.335181 8.220855 5.7756877 7.255685
000330 c0 46 02 40 66 53 85 3e e8 65 02 41 49 f2 ee 3f
       2.0355682 0.2604019 8.149879 1.866769
000340 cf 55 c1 40 29 26 a3 41 b0 0b b3 40 b3 c0 98 40
       6.0417247 20.393633 5.5951767 4.773523
000350 f0 61 9a 40 1d bf 9e 41 55 32 c9 40 b6 e6 85 40
       4.8244553 19.843317 6.287394 4.184413
000360 cb bc e9 40 da a0 bf 40 08 f8 98 40 20 3c 9d 40
       7.304296 5.988385 4.7802773 4.9135895
000370 77 3a ee 40 93 ab 1b 41 53 a3 10 40 cb 1a 63 40
       7.444637 9.729388 2.2599685 3.5485103
000380 07 5a 78 3f 48 82 e3 40 0a 47 a1 40 a2 1c d8 40
       0.9701237 7.1096535 5.0399218 6.753495
000390 95 ee f8 40 95 0c c7 40 0c 30 46 40 44 55 be 40
       7.779124 6.220286 3.0966825 5.9479084
0003a0 e0 2b 9e 40 c8 2b 9e 40 ed be 3a 41 dd 8e 6f 40
       4.942856 4.9428444 11.671613 3.7430947
0003b0 ad 16 7c 3f ff 13 44 40 5f 42 1c 40 ab 08 0d 41
       0.984721 3.0637205 2.441551 8.814616
0003c0 b3 e2 e2 40 4f ac 69 3d 2a ad 09 41 43 b9 b1 3f
       7.0901732 0.057049092 8.604776 1.3884662
0003d0 50 b1 a4 40 6e e4 bd 40 43 4d 18 41 fb 5f 0c 40
       5.1466446 5.9341345 9.518863 2.1933582
0003e0 54 22 2d 40 4d 0d 27 41 38 84 d0 40 04 2d 05 41
       2.7052202 10.440747 6.51614 8.32349
0003f0 02 9d 10 40 14 85 d1 40 da 56 1f 41 2a 17 95 40
       2.259583 6.547495 9.958704 4.6590776

fc2.weight f4 [256, 516]
000000 65 0d 8e be cb f8 40 be fb e5 f2 bb fe 1a 42 3e
       -0.27744594 -0.18844907 -0.0074126697 0.18955609
000010 48 cb d1 bd d6 4a c6 3d 69 ec 58 be d9 33 1c be
       -0.10243851 0.096822426 -0.21183933 -0.15254153
000020 34 e1 be bd 7a 69 d7 3d 15 11 09 3c 6a ba ea bc
       -0.09320298 0.10518165 0.008365889 -0.028653342
000030 92 bd 24 be 71 84 5f 3e 90 1d 40 3d d5 8b c1 bc
       -0.1608794 0.21827866 0.046903193 -0.023626247
000040 e0 24 52 bd 89 a7 87 be b9 59 92 bd 34 eb 63 3d
       -0.051304698 -0.26495007 -0.071460195 0.05564423
000050 cc 85 c7 3c da f6 8f bd 8b f5 0c bc 0f ca 15 be
       0.024355792 -0.07029505 -0.008603464 -0.1462786
000060 00 9e 85 3b 5b 9b 8b bc 90 5c af 3b 62 b9 d4 bd
       0.004077673 -0.017041853 0.0053516105 -0.103869215
000070 1c c1 04 be 77 1f 4f be cd 51 ce 3d c5 19 82 be
       -0.1296429 -0.20226847 0.10074196 -0.25410286
000080 4c bc b8 bb 96 d1 79 be 92 bf 6c bd 43 68 85 3d
       -0.005637681 -0.24396357 -0.057799883 0.06514027
000090 47 40 95 bd f6 17 d6 3c c2 d1 ab 3d 8e e5 e0 bd
       -0.072876506 0.026134472 0.083896175 -0.10981284
0000a0 bf f3 fc bd 41 15 8f 3c a3 04 84 be 50 30 50 bb
       -0.123511784 0.01746619 -0.25784788 -0.0031767078
0000b0 17 29 4e be 7c cc 20 be c7 be 2a be 8e 40 74 ba
       -0.20132862 -0.15703005 -0.16674338 -0.0009317481
0000c0 9e 4d 7b 3c 2d 6c 33 3e 50 93 6b be fb aa 51 3d
       0.01533833 0.17521735 -0.23005414 0.05118845
0000d0 8f 10 83 bd d4 10 1f be 87 d5 34 3d 10 66 f9 bd
       -0.06399643 -0.15533763 0.044148948 -0.1217767
0000e0 dc 7e 45 3b e1 ab 8b be ca 52 29 3d 64 55 dc 3d
       0.0030135429 -0.2727957 0.04133872 0.107584745
0000f0 09 b4 f8 3b 4b 50 c5 3d 17 57 69 bd 99 e4 34 bb
       0.0075898212 0.09634455 -0.05696782 -0.0027602075
000100 b0 64 fb bd c5 b1 e3 bc f8 d8 41 be 41 a0 e4 3d
       -0.12275064 -0.027794728 -0.18930423 0.111633785
000110 5b 9a 3a bd dc c7 92 3c 92 79 f8 3d 77 62 26 bd
       -0.04555736 0.017917566 0.12132563 -0.040621247
000120 47 31 0e be 62 4d 00 3d db 2a f7 bd a3 72 96 3d
       -0.13885985 0.031323798 -0.12068721 0.07346084
000130 af cd b5 bd 75 5f b4 bd aa a0 61 be 53 fc 84 be
       -0.08877122 -0.088072695 -0.22033945 -0.25973758
000140 b1 36 45 bc ab c0 4f be 52 2c ae bd dc 89 d1 bb
       -0.012036965 -0.20288341 -0.08504547 -0.006394608
000150 93 1a 89 3d 60 0f c5 bd c8 7b 04 be ee 9a 1f be
       0.06694522 -0.09622073 -0.12937844 -0.15586445
000160 af 7b 0e bd fc b9 93 bd ce ae a5 bd db e1 21 be
       -0.034785923 -0.07213208 -0.08089982 -0.15808813
000170 fa 95 09 bc 2d a7 c3 bd 2e 9e e8 3d 03 ff a8 3d
       -0.008397574 -0.095533706 0.113582954 0.082517646
000180 a4 5c cc 3b ac 6e 12 bd cd 61 27 3c 2c 58 a2 bc
       0.0062366296 -0.035750076 0.010216189 -0.019817434
000190 b4 74 60 be 38 9f 73 be 5a 3d 37 3d 3e 80 ae bd
       -0.21919519 -0.23791206 0.044736244 -0.08520554
0001a0 99 7f 3a bb 51 24 38 be df e8 ff bd 2e 49 70 bd
       -0.0028457402 -0.17982604 -0.124955885 -0.05866354
0001b0 15 4b fb bc ce 55 21 be 2d 10 7d be de 44 18 3e
       -0.03067545 -0.15755388 -0.24713202 0.14870021
0001c0 07 cf 60 bd 7b 51 40 3d 56 59 f2 bd b0 4f 91 bd
       -0.054884937 0.046952706 -0.11833446 -0.07095277
0001d0 87 02 2f be 1e 1a 84 be d1 3a 4b bd 4a 2c fb bc
       -0.17090808 -0.25801176 -0.04961664 -0.030660767
0001e0 92 9a 01 3e 42 d1 a3 bd 95 f3 51 bb bd b1 26 be
       0.1265662 -0.07998897 -0.0032036055 -0.1627874
0001f0 e9 19 9f be 2b b2 24 be e5 0d fe bc 2f 95 35 be
       -0.31074455 -0.1608359 -0.031012485 -0.1773269
000200 82 2e c2 bc 4e 01 97 bd f4 12 1f bc 6f 67 47 bc
       -0.023703817 -0.07373296 -0.009709109 -0.012170657
000210 6f 66 13 3e cb 0b 24 bc 81 ca aa 3d 6c 79 e8 bd
       0.14394544 -0.010012577 0.08339406 -0.113512844
000220 9f c8 90 bd 53 ea b9 be 51 79 17 be de cb 4f 3d
       -0.070695154 -0.36311588 -0.14792372 0.050731532
000230 35 77 19 bd 7c f7 d9 bd 13 d9 0b 3d 64 bf c0 3d
       -0.0374672 -0.10642907 0.034142565 0.09411505
000240 b3 f6 f0 3b 76 3c 1e bd 13 76 54 bc 25 50 96 bd
       0.0073536276 -0.03863188 -0.012967604 -0.07339505
000250 85 5a 3a bd 3c 92 ac bd 2d 9b 03 be ea 86 36 bd
       -0.045496482 -0.084263295 -0.12852164 -0.044562258
000260 b7 5f 43 be 3c a0 28 be b4 53 a5 bd 1f b9 a3 bd
       -0.19079481 -0.16467375 -0.08072606 -0.079942934
000270 af 5a 3d 3a b2 f2 fe bd 9e 38 8c 3d d8 f9 7f be
       0.0007223291 -0.12448634 0.06846736 -0.24997652
000280 2d e4 27 bd 8b 21 77 bd 1b 66 ff bd 3a b6 4d be
       -0.04098909 -0.060334723 -0.12470647 -0.20089045
000290 51 b5 9e bd b9 73 fd bd a5 7e 2e 3c dc d4 b0 3c
       -0.07749427 -0.12375588 0.010650312 0.021585874
0002a0 74 90 4e be 9c a5 d4 ba 5e e8 b2 bd 43 b2 e6 ba
       -0.20172292 -0.0016223672 -0.08735727 -0.0017600734
0002b0 46 99 39 bc 49 1b c4 bd 92 ba 49 3e d1 57 1b bd
       -0.011328047 -0.09575517 0.19700077 -0.037925545
0002c0 f7 a8 7c bc 79 7b 7a 3d 37 8b 44 3d 2c 39 7b bd
       -0.015421144 0.06115291 0.047984328 -0.06133382
0002d0 ba 06 5a 3d 26 b2 3c bb 03 fb 6e bd a9 0b ee bd
       0.05322907 -0.0028792708 -0.058344852 -0.11623318
0002e0 7e b9 17 3d 8d 35 c0 bb 90 e9 49 3d 83 12 69 be
       0.037042134 -0.0058657588 0.04929501 -0.22760968
0002f0 a9 1e 85 bd 96 bb 47 be 13 c8 29 3c b0 68 87 bd
       -0.064999886 -0.19505152 0.010362643 -0.066117644
000300 cd cb c9 bd 8d 5f ed bd 54 4f e2 3c 02 a1 5b bd
       -0.09853325 -0.115904905 0.027625717 -0.053620346
000310 f6 5b c6 bd ee df ea bd 4c af 18 be 82 86 01 be
       -0.09685509 -0.114684924 -0.1491062 -0.12648967
000320 51 34 04 3d c5 b8 74 3c de f7 82 be 1b c5 1e bd
       0.032276455 0.014936631 -0.25579733 -0.038762193
000330 90 09 a5 bd c7 50 db 3b dc 16 c8 3d 59 fc 05 be
       -0.080584645 0.006692979 0.09769985 -0.13084544
000340 c5 cd fd 3c 21 fb ed 3d 17 85 ce bd e6 cc 59 be
       0.030981908 0.11620165 -0.100839786 -0.21269569
000350 a6 48 85 be aa 90 8b 3d fd dd 86 bd 7a f4 4a bc
       -0.2603199 0.06814702 -0.0658531 -0.012387389
000360 71 21 93 bc 74 31 6a be f0 12 2d 3c 19 a7 af 3c
       -0.017960282 -0.22870427 0.010563597 0.021441983
000370 a2 d4 13 be c1 4c f3 bd d0 02 80 be c0 64 96 bc
       -0.14436582 -0.11879874 -0.25002146 -0.018358588
000380 8f ab fd bc 27 4c 08 be ca 8d e6 bd 36 48 28 3d
       -0.030965595 -0.133103 -0.11257513 0.04108449
000390 40 72 8c 3b 22 d3 53 be ac 0e 6d be a9 fe 8d 3d
       0.0042860806 -0.2068601 -0.23150128 0.06933338
0003a0 4c 3f 9e 3d 82 6b 98 3d 4e 9f 4a be 2b 88 24 3e
       0.07726917 0.074423805 -0.19787332 0.16067569
0003b0 f0 0e 25 be 89 be 80 be d2 48 1a be 0c 96 39 be
       -0.1611898 -0.25145367 -0.15066841 -0.18123645
0003c0 bc 0f 18 be 06 cd 84 bc b3 53 6b 3b ea 2b 00 be
       -0.14849752 -0.016211044 0.0035908043 -0.12516752
0003d0 3f 0a 9f 3c c0 a8 5f 3d f9 7c 8b 3d 89 5f 39 3d
       0.019414065 0.054604292 0.06810946 0.045257125
0003e0 8d 0e 88 bc 91 7c 29 bb 07 a8 0d be e0 81 ba 3d
       -0.0166085 -0.00258616 -0.13833629 0.09106803
0003f0 2e 9e 9b bd 5b 8a bd bd 19 03 09 3e 71 19 d2 3b
       -0.0759853 -0.09254905 0.13380088 0.0064117243
